cnn.pth (torch, 251264 bytes, 10 tensors)

conv1.weight f4 [6, 3, 5, 5]
0.24578209 0.23710975 0.16500832 0.17433792 0.2187675 -0.10101042 -0.18153311 -0.19345053
-0.10691993 0.05664681 -0.23763137 -0.23548594 -0.14659153 -0.21552826 -0.21457922 -0.08053377
-0.12582545 0.016169038 -0.0891531 -0.04571254 0.09596791 0.06152314 0.09326274 0.1967727
0.06695252 0.123007394 -0.010738341 0.092717424 0.010964617 0.06735917 -0.15327518 -0.19437025
-0.10939479 -0.16302696 -0.02871379 -0.1494467 -0.24515532 -0.16787751 -0.23166849 -0.116388366
-0.034614608 0.00044403767 -0.055451322 -0.0132528115 0.08628501 0.08726497 0.059924446 0.21787047
0.18263805 0.1678698 -0.06635822 0.041292585 0.10828959 0.040945 -0.075797185 -0.14235209
-0.030428298 -0.082834266 -0.12135934 -0.13243775 -0.15748 -0.017611982 -0.13122313 -0.10267913
0.026016086 0.12511612 0.16059546 0.13467842 0.104909904 0.008923877 0.13710895 0.2679716
0.17568527 0.1525835 0.20229444 0.12788476 0.17206097 -0.14472122 -0.12681575 -0.10899743
0.17883262 0.058161985 -0.18873633 -0.15718555 -0.1803028 0.098519914 -0.11200417 -0.03721698
0.07401912 2.7207534e-05 -0.14700933 -0.055535108 0.10977279 0.21057394 0.26161382 -0.006396848
0.008417882 -0.047893416 0.2029037 0.074301235 0.22382541 -0.035611607 -0.17664121 -0.055146575
-0.16680361 0.08028131 0.06807212 -0.11401634 -0.1375787 -0.14793609 -0.0824388 -0.1462977
0.06735074 0.04888518 -0.025522405 -0.13044924 -0.07435811 -0.020536648 0.25659627 0.24813709
0.05227735 -0.044948377 0.15444417 0.18158422 0.15062596 0.17496172 0.09883237 -0.037433594
-0.0405587 -0.09122524 0.018155918 0.017646724 -0.18120512 -0.01391571 -0.19255555 0.025615048
-0.08150043 -0.17223892 -0.010790593 0.16452426 -0.09962763 -0.16645671 0.04819765 0.04828346
0.1597201 -0.061005224 -0.008675019 0.037569575 0.07457459 0.037272036 0.13891925 0.15263335
0.113419995 0.09885149 0.16303468 0.0546654 -0.040541645 0.00022688691 0.07281511 0.056786332
0.012531398 -0.028947106 0.13527347 0.03542309 0.15504557 0.0049045375 -0.006616173 -0.039472252
0.09752912 0.13668354 -0.06499673 -0.06654606 0.14855678 0.07624896 -0.036798995 -0.060568064
-0.14155012 -0.01917836 -0.08665396 -0.018434249 -0.09068074 -0.21891472 -0.21390884 -0.1769101
-0.050036833 -0.10351565 -0.1681496 -0.12008198 -0.126745 -0.16600806 -0.1582406 -0.11825795
-0.12718382 -0.19896182 -0.1038239 -0.09942016 -0.032756872 -0.12861891 -0.112642474 0.025216993
-0.1114824 -0.111710675 -0.014803626 0.0213253 -0.092555344 -0.067401804 -0.06268891 -0.11699245
-0.16107255 0.05994746 -0.0809739 0.0005079838 -0.029915405 -0.039285168 0.032565583 0.065015174
-0.02461928 -0.075522445 0.09037513 0.021358969 0.12822254 0.12823284 0.10924846 0.07352362
0.10433693 0.12892218 -0.0017279885 0.014206553 0.071670994 0.09165018 -0.05454509 0.033546843
0.20235461 0.13079265 -0.09861554 0.10886876 0.11360903 0.18935737 0.10625562 0.071922034
-0.020905947 0.07070528 0.07882762 0.13917865 -0.00069921685 0.09876551 0.049476307 -0.032799955
-0.07671798 -0.093625925 0.04641343 0.018239707 -0.09485262 0.026383797 0.04482987 -0.10641596
00000000: 4dae 7b3e e6cc 723e f1f7 283e a485 323e
00000010: 9604 603e 8dde cebd d1e3 39be e517 46be
00000020: d6f8 dabd 7c06 683d a355 73be 3a23 71be
00000030: 171c 16be 71b3 5cbe a8ba 5bbe e4ee a4bd
00000040: 63d8 00be ee74 843c e795 b6bd 133d 3bbd
00000050: d38a c43d b0ff 7b3d 8900 bf3d c87e 493e
00000060: 671e 893d 4deb fb3d deef 2fbc a2e2 bd3d
00000070: f0a4 333c 9bf3 893d 2bf4 1cbe ff08 47be
00000080: 600a e0bd 8af0 26be 2f39 ebbc 8e08 19be
00000090: ff09 7bbe 15e8 2bbe 813a 6dbe 065d eebd
000000a0: 0cc8 0dbd bacd e839 ed20 63bd 5222 59bc
000000b0: 32b6 b03d fab7 b23d 5673 753d 7019 5f3e
000000c0: 7805 3b3e 10e6 2b3e d2e6 87bd 6a22 293d
000000d0: efc6 dd3d f2b5 273d 8e3b 9bbd bfc4 11be
000000e0: c444 f9bc 03a5 a9bd 3f8b f8bd c39d 07be
000000f0: 7042 21be 0147 90bc 5b5f 06be 7049 d2bd
00000100: b01f d53c 711e 003e 2373 243e 24e9 093e
00000110: 01db d63d 7435 123c 4a66 0c3e 9333 893e
00000120: d7e6 333e d93e 1c3e 4626 4f3e 39f4 023e
00000130: c030 303e cd31 14be fddb 01be 0b3a dfbd
00000140: e61f 373e 433b 6e3d 1944 41be 40f5 20be
00000150: 4ca1 38be cfc4 c93d 7162 e5bd d570 18bd
00000160: 5697 973d bc3b e437 9d89 16be c878 63bd
00000170: 8ed0 e03d b2a0 573e 3ff2 853e a69c d1bb
00000180: 28eb 093c e32b 44bd fdc5 4f3e 3f2b 983d
00000190: 7d32 653e 7add 11bd 6fe1 34be 60e1 61bd
000001a0: 91ce 2abe 876a a43d 6569 8b3d 6681 e9bd
000001b0: 6ee1 0cbe 8f7c 17be acd5 a8bd 10cf 15be
000001c0: 2fef 893d d43b 483d 5d14 d1bc 7c94 05be
000001d0: 1149 98bd 793c a8bc 9660 833e a617 7e3e
000001e0: c620 563d ca1b 38bd 9d26 1e3e 37f1 393e
000001f0: b13d 1a3e 2a29 333e a068 ca3d f853 19bd
00000200: e120 26bd 4cd4 babd b8bb 943c dd8f 903c
00000210: d68d 39be b8fe 63bc 482d 45be a6d6 d13c
00000220: b3e9 a6bd 665f 30be 07cb 30bc 0c79 283e
00000230: 9209 ccbd a173 2abe e66a 453d e1c4 453d
00000240: aa8d 233e 9de0 79bd ab21 0ebc 8ee2 193d
00000250: 90ba 983d 90aa 183d d940 0e3e eb4b 1c3e
00000260: be48 e83d a672 ca3d 90f2 263e d4e8 5f3d
00000270: ff0e 26bd 7ee8 6d39 1720 953d c998 683d
00000280: 7e50 4d3c 7b22 edbc 2185 0a3e cd17 113d
00000290: 44c4 1e3e 3eb6 a03b 7bcc d8bb a8ad 21bd
000002a0: 59bd c73d c5f6 0b3e 011d 85bd 4d49 88bd
000002b0: 451f 183e 6a28 9c3d 8bba 16bd 3816 78bd
000002c0: 84f2 10be f01b 9dbc a277 b1bd 6c03 97bc
000002d0: d3b6 b9bd 2e2b 60be eb0a 5bbe ec27 35be
000002e0: 6cf3 4cbd 0300 d4bd 692f 2cbe 8bed f5bd
000002f0: 71c9 01be 04fe 29be d309 22be 3931 f2bd
00000300: 7a3c 02be a6bc 4bbe a0a1 d4bd cc9c cbbd
00000310: 122c 06bd adb4 03be 19b1 e6bd de93 ce3c
00000320: e250 e4bd 91c8 e4bd e88a 72bc 65b2 ae3c
00000330: a88d bdbd f509 8abd 0b63 80bd bd99 efbd
00000340: 34f0 24be 788b 753d a5d5 a5bd 372a 053a
00000350: 2711 f5bc 7ce9 20bd 7d63 053d ad26 853d
00000360: 5fae c9bc 83ab 9abd 9916 b93d 01f9 ae3c
00000370: c54c 033e 784f 033e a8bd df3d 8d93 963d
00000380: 9aae d53d 2d04 043e ac7d e2ba 9ac2 683c
00000390: 3ec8 923d 17b3 bb3d ac6a 5fbd 6a68 093d
000003a0: 0c36 4f3e 82ee 053e f2f6 c9bd 96f6 de3d
000003b0: daab e83d e6e6 413e 8c9c d93d dc4b 933d
000003c0: f342 abbc eecd 903d 6070 a13d d984 0e3e
000003d0: a64b 37ba 9245 ca3d aba7 4a3d 3f59 06bd
000003e0: 511e 9dbd f3be bfbd 021c 3e3d 706b 953c
000003f0: 1742 c2bd d522 d83c 879f 373d 9cf0 d9bd

conv1.bias f4 [6]
-0.20499472 0.12776406 -0.18768089 0.25547183 0.40724704 0.6475745
00000000: 23ea 51be 95d4 023e 6b2f 40be 34cd 823e
00000010: af82 d03e 71c7 253f

conv2.weight f4 [16, 6, 5, 5]
-0.06800701 -0.0878337 0.05278962 0.004969353 0.018459072 0.075929865 0.07797719 0.023518272
-0.07033902 0.04656259 0.0030417736 0.041816756 -0.07452728 0.010066298 0.09748418 0.018138345
0.117841356 0.1387172 0.03876344 0.16841838 0.17271687 0.08097749 0.15523802 0.10600098
0.14702663 -0.023619218 -0.0116780335 0.019214693 -0.0206146 0.039561868 0.1083432 -0.013631727
-0.058275234 0.08274565 0.017533489 0.060182672 0.0629252 -0.069054134 0.048947897 0.06736306
-0.01229332 0.015887275 -0.06932993 0.034766376 0.10782862 0.10243818 0.055961523 -0.01234808
0.13492998 0.085528925 0.051741496 -0.05400489 -0.038120393 0.004799753 -0.07805116 -0.03583919
0.05405375 -0.034288954 0.06898434 0.03363577 -0.022385309 -0.048448607 -0.004640494 -0.07514391
0.07235599 -0.020684466 -0.082138285 0.029280834 0.06264644 0.05394204 -0.007934917 -0.032875165
0.005603661 -0.034585275 -0.040003657 0.08577307 0.017911276 0.041267276 0.102168426 0.05427941
-0.070043065 -0.04396945 -0.08327697 -0.046654746 -0.023088856 0.06800721 -0.05499246 0.040270045
0.076843984 -0.0067992387 -0.08366668 -0.03415916 -0.05825684 -0.01897706 -0.066366374 -0.061823558
-0.13704745 0.0017468238 -0.066043556 -0.010253134 -0.050847176 0.007388736 0.012808105 0.01402562
-0.03873785 0.042707276 0.053141885 0.0021605275 -0.041489832 0.06464534 -0.047531534 -0.03922105
-0.016516203 0.08655544 -0.04949406 0.05953635 0.04515895 -0.024103515 0.06594175 0.06734017
0.042439684 0.044916313 -0.0033941164 -0.06282756 -0.109097116 -0.08840383 -0.109248824 -0.06512739
-0.054781485 -0.086604126 -0.04078294 -0.030615196 -0.1259015 -0.070996374 -0.080254115 -0.057537746
-0.0352648 -0.097766064 -0.00833161 0.027552653 0.013753887 0.006584082 0.13046902 0.1376662
0.09738889 0.07388741 0.12409478 0.1104189 -0.02299148 -0.02138925 -0.06965511 -0.05925792
-0.02429408 -0.0636211 0.0059280484 0.027064783 0.011756026 0.04249781 -0.01378214 -0.077125676
0.061952394 -0.02667741 0.07164918 -0.08936205 0.038659275 -0.04760651 0.06727749 -0.02709629
0.028204503 0.03507705 -0.06033054 -0.0016285627 -0.04291577 0.03313317 -0.07376146 -0.080916315
0.015106794 0.043921497 0.01499571 -0.068797365 -0.055428896 0.02440294 -0.034126546 0.054418154
-0.038632598 -0.01216955 -0.06877527 0.042754196 -0.041615177 -0.08349426 0.026698533 -0.027997468
0.039050728 -0.015826669 -0.04247115 -0.012850113 0.008761602 -0.07448293 -0.071440265 0.05728127
-0.059341587 0.07377194 -0.031927057 0.059466787 -0.08441396 -0.047800094 -0.050039243 -0.019390926
0.04940714 -0.09375646 -0.048639573 0.076484814 0.033842124 -0.013410534 0.012305828 0.036585722
0.026892383 -0.041632634 -0.008612705 0.005525487 -0.04725497 -0.099794894 -0.08439199 0.0015751126
-0.047900964 -0.053236976 -0.015071947 0.082844004 -0.03797246 0.123229735 0.044859845 -0.08522529
0.07014197 0.123253465 0.11005518 0.058187578 -0.09671792 0.017941233 0.09753571 0.13561217
-0.055051044 0.0026346191 -0.07627547 -0.038853932 -0.0036695215 0.030444356 0.014352328 -0.11293878
0.021359589 -0.063552015 -0.01799978 0.036369354 -0.08019543 -0.10785683 -0.041742474 -0.019248553
00000000: 4247 8bbd 28e2 b3bd ee39 583d f4d5 a23b
00000010: 7b37 973c 1e81 9b3d 81b2 9f3d 64a9 c03c
00000020: e70d 90bd 6ab8 3e3d 7e58 473b 0c48 2b3d
00000030: c2a1 98bd 1ded 243c c9a5 c73d de96 943c
00000040: cf56 f13d e20b 0e3e 6ac6 1e3d de75 2c3e
00000050: b1dc 303e 87d7 a53d b7f6 1e3e 0b17 d93d
00000060: 268e 163e 177d c1bc 3955 3fbc 2268 9d3c
00000070: f3df a8bc a00b 223d 0ae3 dd3d 9b57 5fbc
00000080: 03b2 6ebd 8d76 a93d 64a2 8f3c 1b82 763d
00000090: edde 803d 416c 8dbd 977d 483d a5f5 893d
000000a0: ec69 49bc 0826 823c dafc 8dbd 3067 0e3d
000000b0: 40d5 dc3d 1ccb d13d e937 653d 9a4f 4abc
000000c0: 162b 0a3e ca29 af3d e4ee 533d 3b34 5dbd
000000d0: 2124 1cbd 3f47 9d3b 49d9 9fbd 1dcc 12bd
000000e0: 7767 5d3d 9372 0cbd a947 8d3d a9c5 093d
000000f0: 6561 b7bc 0c72 46bd 490f 98bb 0de5 99bd
00000100: 612f 943d 7872 a9bc 1e38 a8bd 5cde ef3c
00000110: c74c 803d 54f2 5c3d 7401 02bc 1ca8 06bd
00000120: ea9e b73b 4aa9 0dbd e0da 23bd cba9 af3d
00000130: abba 923c e007 293d ae3d d13d 1654 5e3d
00000140: bd72 8fbd 4f19 34bd 1e8d aabd 0c19 3fbd
00000150: d724 bdbc 5d47 8b3d c63f 61bd 34f2 243d
00000160: 6160 9d3d 26cc debb 7059 abbd 7aea 0bbd
00000170: b99e 6ebd c875 9bbc 18eb 87bd b33a 7dbd
00000180: 2b56 0cbe aef5 e43a d841 87bd c3fc 27bc
00000190: 2145 50bd 361d f23b 16d9 513c b7cb 653c
000001a0: 94ab 1ebd d3ed 2e3d 4eab 593d a397 0d3b
000001b0: 3ef1 29bd c764 843d 6db0 42bd 40a6 20bd
000001c0: fd4c 87bc fb43 b13d 49ba 4abd 63dc 733d
000001d0: 97f8 383d bc74 c5bc 780c 873d a5e9 893d
000001e0: 3cd5 2d3d 2bfa 373d d36f 5ebb bcab 80bd
000001f0: 4f6e dfbd 110d b5bd d9bd dfbd 8261 85bd
00000200: 8d62 60bd 815d b1bd 030c 27bd b8cc fabc
00000210: 53ec 00be 8c66 91bd 455c a4bd b3ac 6bbd
00000220: d371 10bd 9339 c8bd 4e81 08bc 1ab6 e13c
00000230: fc57 613c 48bf d73b ac99 053e 5ef8 0c3e
00000240: d473 c73d 4852 973d 6725 fe3d 4e23 e23d
00000250: a158 bcbc 8238 afbc 57a7 8ebd 6fb8 72bd
00000260: 6104 c7bc c74b 82bd 1340 c23b f7b6 dd3c
00000270: 599c 403c 2f12 2e3d 7cce 61bc 11f4 9dbd
00000280: cbc1 7d3d 958a dabc cebc 923d 7303 b7bd
00000290: 3059 1e3d 0bff 42bd c8c8 893d 0af9 ddbc
000002a0: 210d e73c f4ac 0f3d 281d 77bd 7f75 d5ba
000002b0: 72c8 2fbd a6b6 073d 4010 97bd 74b7 a5bd
000002c0: 7d82 773c 07e7 333d 91b0 753c a2e5 8cbd
000002d0: 6909 63bd ade8 c73c 47c8 0bbd 92e5 5e3d
000002e0: 373d 1ebd cb62 47bc 0cda 8cbd 061f 2f3d
000002f0: ad74 2abd 0aff aabd e2b6 da3c f25a e5bc
00000300: a8f3 1f3d eea6 81bc 3bf6 2dbd 4889 52bc
00000310: d38c 0f3c 828a 98bd 464f 92bd c49f 6a3d
00000320: 2a10 73bd be15 973d f2c5 02bd 7293 733d
00000330: 3ae1 acbd 08ca 43bd f3f5 4cbd b8d9 9ebc
00000340: 245f 4a3d 6303 c0bd 4a3a 47bd 12a4 9c3d
00000350: 0a9e 0a3d dbb7 5bbc 629e 493c e9da 153d
00000360: 6a4d dc3c fb86 2abd 4e1c 0dbc 250f b53b
00000370: 6d8e 41bd 4461 ccbd b5d5 acbd 0274 ce3a
00000380: cd33 44bd 040f 5abd 54f0 76bc 1eaa a93d
00000390: 0389 1bbd df5f fc3d f5be 373d 998a aebd
000003a0: 98a6 8f3d 506c fc3d 9c64 e13d 1956 6e3d
000003b0: 0b14 c6bd 7ef9 923c cdc0 c73d ebdd 0a3e
000003c0: 347d 61bd 93a9 2c3b 5036 9cbd 4d25 1fbd
000003d0: 5b7c 70bb 7166 f93c 0726 6b3c 724c e7bd
000003e0: 4efa ae3c 8f27 82bd 4674 93bc 08f8 143d
000003f0: 803d a4bd 0be4 dcbd 28fa 2abd 24af 9dbc

conv2.bias f4 [16]
-0.10438755 0.14837936 -0.04176513 -0.0089680785 0.00017886452 0.02633197 0.07461228 -0.018483773
-0.05366481 -0.2872769 0.14123659 -0.064017616 0.0929614 0.12296696 0.12041183 0.04342338
00000000: 24c9 d5bd c2f0 173e ea11 2bbd d9ee 12bc
00000010: 948d 3b39 25b6 d73c 53ce 983d 486b 97bc
00000020: a2cf 5bbd f515 93be 53a0 103e ab1b 83bd
00000030: 8c62 be3d 1ad6 fb3d 7a9a f63d b7dc 313d

fc1.weight f4 [120, 400]
-0.00052909227 -0.050405703 -0.021125026 0.009351356 -0.037445292 0.01587126 0.020322645 -0.0067151315
0.016617864 0.015947198 0.04758992 -0.006409647 0.06130299 -0.016144486 0.031490248 0.0465746
-0.00059935404 -0.008753931 -0.015184939 0.0051456047 0.016825702 0.033257995 0.00084420247 -0.0013196367
-0.0020964914 0.04135012 0.00877298 0.00445284 0.031115033 -0.020348102 0.00910939 -0.04160562
-0.004624789 0.0054973294 -0.029489819 0.009134883 -0.031201947 0.015078917 0.037081745 -0.027016887
0.0018742422 0.008660111 -0.006725657 0.0138147995 -0.003281456 -0.02310266 0.027874568 -0.023457633
0.045652922 0.034207627 -0.015868252 0.036471896 -0.010859994 -0.031061495 -0.029993603 -0.0011366713
-0.032921974 0.0072022714 0.0034980385 -0.051514 0.038745817 -0.025161419 -0.02128514 0.05235896
-0.010101325 0.023585416 -0.03394261 -0.03532551 0.030889675 -0.0005282469 -0.00626719 -0.014105694
-0.039295714 0.012270085 0.021175988 -0.009507907 -0.0607467 0.0018790653 -0.038073245 -0.06436309
-0.053864412 -0.040359534 0.0227343 0.020302549 -0.034188673 -0.035717297 0.02683705 -0.025450114
0.03249817 -0.04511784 -0.011629591 0.019513572 -0.0522426 -0.004282012 -0.033791374 0.042752057
0.025430866 0.0020712935 -0.030426776 0.018509962 0.034141127 0.037356064 -0.029554578 -0.015984787
0.026490893 -0.0056411466 -0.009171681 0.024671085 -0.0147963585 -0.020598482 0.041484077 -0.024128355
-0.02365062 -0.044637363 -0.037370503 -0.027344206 0.0442311 0.010063011 0.035031844 0.005169323
-0.056585822 0.03178835 0.030200664 0.0023785837 -0.035175014 0.06527868 -0.013391221 0.060656175
0.027340133 0.045510408 -0.02464302 -0.016005756 -0.040026117 -0.060332038 -0.004753197 0.030078148
0.019990545 -0.011265012 -0.0032563629 -0.027908841 -0.03857497 0.0070924903 0.056307286 0.027671678
0.029531624 0.021560026 -0.010421743 0.026401656 -0.047238484 -0.00044009482 0.086093344 0.06376064
0.032682326 0.0714477 0.04319718 0.00067682733 0.012579217 -0.0031121874 -0.05941899 -0.021170098
0.03350204 -0.0062982156 -0.050255485 -0.02376513 -0.03532002 -0.060918596 0.018581796 -0.027124522
0.033754423 -0.026836505 -0.064927496 0.001913102 -0.020235637 -0.005338108 0.009765867 -0.017179253
0.03221869 0.0023820233 0.016242651 0.032009006 0.040044177 0.021953076 0.031748824 -0.025897745
-0.019952746 0.024470726 -0.016152438 -0.03421327 -0.032679733 -0.034543686 -0.040835045 -0.047924533
0.017414566 -0.015250313 0.020775372 0.0038620497 0.013599371 0.014252329 0.02706875 -0.002880647
-0.03153353 -0.05760427 -0.03495336 0.032295298 0.03947584 0.061920602 0.028753681 -0.054983392
-0.041824374 0.060011275 -0.026128452 0.04473341 0.039106354 0.034820043 0.0075437916 0.05890849
0.026052872 0.014407689 0.021011682 0.044525143 0.03871516 0.013031685 0.049502917 0.015416052
-0.009155768 -0.025008695 -0.050212856 -0.007959995 -0.02476618 0.041404523 -0.047247972 0.012462401
-0.06372914 -0.02159617 -0.011608523 0.026126789 -0.011412814 0.05319508 0.03092573 -0.026797451
0.0040896754 -0.017064204 -0.059893727 0.0016641922 -0.041413657 -0.014741897 -0.0028682475 -0.05466307
-0.013191555 -0.013883323 -0.04008733 0.027593542 0.007927305 0.028602002 0.0021578376 -0.009016118
00000000: c8b2 0aba 3676 4ebd 640e adbc 6e36 193c
00000010: 3c60 19bd 7204 823c ad7b a63c 9b0a dcbb
00000020: 3022 883c b3a3 823c a6ed 423d 0408 d2bb
00000030: d818 7b3d 7141 84bc ebfb 003d 02c5 3e3d
00000040: f81d 1dba a66c 0fbc 40ca 78bc 769c a83b
00000050: 0ed6 893c 8939 083d 784d 5d3a a9f7 acba
00000060: 4a65 09bb be5e 293d 8cbc 0f3c 21e9 913b
00000070: f4e4 fe3c 10b1 a6bc 8d3f 153c a86a 2abd
00000080: 8b8b 97bb f122 b43b a294 f1bc 7aaa 153c
00000090: 3a9b ffbc 900d 773c 07e3 173d 8552 ddbc
000000a0: 22a9 f53a 23e3 0d3c e662 dcbb 7857 623c
000000b0: b20d 57bb ca41 bdbc 3559 e43c 392a c0bc
000000c0: 8ffe 3a3d 4c1d 0c3d 23fe 81bc 8e63 153d
000000d0: 1eee 31bc ad74 febc 25b5 f5bc 5cfc 94ba
000000e0: 31d9 06bd 0801 ec3b 593f 653b 5800 53bd
000000f0: efb3 1e3d 521f cebc 2d5e aebc 5976 563d
00000100: 0780 25bc 3436 c13c 6807 0bbd 7bb1 10bd
00000110: 580c fd3c 0d7a 0aba 005d cdbb 921b 67bc
00000120: 8bf4 20bd 7708 493c 4479 ad3c 0dc7 1bbc
00000130: 88d1 78bd f84a f63a b1f2 1bbd ccd0 83bd
00000140: eea0 5cbd 0a50 25bd 483d ba3c 8851 a63c
00000150: 6c09 0cbd 4d4c 12bd 60d9 db3c c27c d0bc
00000160: cd1c 053d 7ccd 38bd 0a8a 3ebc edda 9f3c
00000170: 56fc 55bd 1f50 8cbb d368 0abd c81c 2f3d
00000180: 6454 d03c 8abe 073b 9341 f9bc 34a2 973c
00000190: 91d7 0b3d ac02 193d 711c f2bc 87f2 82bc
000001a0: 6e03 d93c 5ed9 b8bb d144 16bc 041b ca3c
000001b0: 6d6c 72bc 26be a8bc 35eb 293d d4a8 c5bc
000001c0: f2be c1bc abd5 36bd d011 19bd f500 e0bc
000001d0: ab2b 353d 54df 243c 8d7d 0f3d 6d63 a93b
000001e0: 89c6 67bd 8034 023d 6267 f73c 03e2 1b3b
000001f0: ad13 10bd d4b0 853d da66 5bbc 9c72 783d
00000200: 6af8 df3c 1f69 3a3d 29e0 c9bc 811e 83bc
00000210: 6df2 23bd ba1e 77bd b5c0 9bbb 7366 f63c
00000220: 36c3 a33c e390 38bc b468 55bb 15a1 e4bc
00000230: ca00 1ebd 1f68 e83b 78a2 663d b7af e23c
00000240: 4eec f13c a79e b03c f5bf 2abc 4948 d83c
00000250: 247d 41bd 87bc e6b9 b551 b03d f094 823d
00000260: e7dd 053d 2c53 923d 87ef 303d 1d6d 313a
00000270: 0f19 4e3c d7f5 4bbb 5461 73bd ea6c adbc
00000280: 6f39 093d 4361 cebb b2d8 4dbd 17af c2bc
00000290: baab 10bd c785 79bd da38 983c 3f34 debc
000002a0: 1442 0a3d 3bd8 dbbc b5f8 84bd 0dc1 fa3a
000002b0: 35c5 a5bc 4ceb aebb 0401 203c 81bb 8cbc
000002c0: bff7 033d b81b 1c3b 4f0f 853c e01b 033d
000002d0: 5d05 243d f0d6 b33c 0e0b 023d 8227 d4bc
000002e0: f173 a3bc d576 c83c 1e52 84bc 3723 0cbd
000002f0: 2fdb 05bd ae7d 0dbd a642 27bd 844c 44bd
00000300: fea8 8e3c 73dc 79bc 1d31 aa3c 711a 7d3b
00000310: e5cf 5e3c 9a82 693c 48bf dd3c 3dc9 3cbb
00000320: 4e29 01bd 74f2 6bbd 412b 0fbd 1348 043d
00000330: 6bb1 213d 75a0 7d3d d78c eb3c 4436 61bd
00000340: 0950 2bbd 62ce 753d 560b d6bc 613a 373d
00000350: fc2d 203d 769f 0e3d e931 f73b 074a 713d
00000360: d56c d53c 3a0e 6c3c b120 ac3c ff5f 363d
00000370: ca93 1e3d d982 553c 92c3 4a3d 9c93 7c3c
00000380: 1302 16bc 09df ccbc ffab 4dbd a46a 02bc
00000390: 72e2 cabc ca97 293d 1787 41bd 192f 4c3c
000003a0: 6c84 82bd 73ea b0bc ad31 3ebc d907 d63c
000003b0: d0fc 3abc 16e3 593d f557 fd3c 5486 dbbc
000003c0: af02 863b 3bca 8bbc 2053 75bd 0621 da3a
000003d0: 5ea1 29bd ff87 71bc 35f9 3bbb 62e6 5fbd
000003e0: 6421 58bc e176 63bc 9d32 24bd da0b e23c
000003f0: 87e1 013c bf4e ea3c 826a 0d3b 57b8 13bc

fc1.bias f4 [120]
-0.00033130267 -0.013944069 0.08084618 0.05368469 0.018637111 -0.029919459 0.012819296 -0.025225192
0.003846873 0.0389141 0.05396374 -0.016482655 -0.07321165 0.005893304 0.01940347 -0.029238168
0.009061674 -0.03483786 -0.024702467 -0.054015923 0.038449224 -0.067469314 0.08216808 -0.008505984
-0.013314751 0.007851696 0.048741553 -0.063091375 -0.024170792 0.038354643 0.09825155 0.04377307
0.012837805 -0.040660124 0.068537846 0.01767866 0.04002383 -0.0026234223 -0.03394464 0.01830188
0.019588321 0.023759259 0.00886994 0.022653371 -0.04386335 -0.044794668 0.0035229367 0.023622373
0.035229288 0.029770292 0.0056698117 -0.008837138 0.028663212 0.08347569 -0.0025142564 -0.03216204
0.08240164 -0.030387066 -0.01413603 -0.043794353 0.033846777 -0.032811157 0.00031490315 0.06885935
0.0128284525 0.05141395 -0.028733525 -0.004002807 -0.009309566 0.0327763 -0.028997304 -0.041359674
0.0062531717 -0.014525924 0.03881874 -0.008274939 0.011989782 0.024546903 -0.011328216 -0.036487274
0.036694165 -0.026329096 -0.04773483 -0.020857034 0.056714866 -0.004823207 0.062284913 0.049359415
-0.060755815 -0.0054308856 -0.0031773522 0.007314922 0.014060449 0.03209922 -0.015202972 -0.044909075
0.03946375 0.0040297373 0.025897939 0.07295023 0.014993151 0.01412205 0.028251544 -0.05927564
0.016765777 0.016266407 -0.058227766 -0.01559251 0.004008262 0.05414233 0.029350808 -0.009508452
-0.0009362287 -0.058522753 -0.05290167 -0.044840015 0.0387715 -0.019153832 -0.03223879 0.04967838
00000000: b1b2 adb9 aa75 64bc af92 a53d 7ae4 5b3d
00000010: dbac 983c a719 f5bc 0608 523c 10a5 cebc
00000020: d21b 7c3b 6464 1f3d 1509 5d3d a206 87bc
00000030: fdef 95bd 9e1c c13b 07f4 9e3c e284 efbc
00000040: 6a77 143c 25b2 0ebd d45c cabc cd3f 5dbd
00000050: ef7c 1d3d 5a2d 8abd bd47 a83d af5c 0bbc
00000060: 1d26 5abc 66a4 003c 39a5 473d 0d36 81bd
00000070: d301 c6bc c219 1d3d 1c38 c93d 644b 333d
00000080: a855 523c 3b8b 26bd 925d 8c3d d6d2 903c
00000090: 07f0 233d b9ed 2bbb 8909 0bbd d3ed 953c
000000a0: b077 a03c c7a2 c23c 3a53 113c 9093 b93c
000000b0: 0eaa 33bd 9d7a 37bd 12e1 663b b583 c13c
000000c0: 964c 103d d4e0 f33c d4c9 b93b a5c9 10bc
000000d0: 1dcf ea3c 4df5 aa3d 39c6 24bb 58bc 03bd
000000e0: 31c2 a83d 4cee f8bc cf9a 67bc b561 33bd
000000f0: eba2 0a3d fe64 06bd 9619 a539 2206 8d3d
00000100: 6e2e 523c 6f97 523d 9262 ebbc fb29 83bb
00000110: 2687 18bc 7140 063d c18b edbc c368 29bd
00000120: 68e7 cc3b 24fe 6dbc 6600 1f3d 9c93 07bc
00000130: ca70 443c 9616 c93c fb99 39bc ae73 15bd
00000140: 9f4c 163d 1eb0 d7bc 9985 43bd 5fdc aabc
00000150: d94d 683d fe0b 9ebb 771e 7f3d 192d 4a3d
00000160: 17db 78bd 92f5 b1bb 203b 50bb 03b2 ef3b
00000170: cc5d 663c 797a 033d e315 79bc 94f2 37bd
00000180: bea4 213d e30b 843b ea27 d43c ee66 953d
00000190: d5a5 753c 2c60 673c c86f e73c 03cb 72bd
000001a0: 6258 893c 2141 853c 3d80 6ebd ba77 7fbc
000001b0: bd57 833b 59c4 5d3d 1b71 f03c 57c9 1bbc
000001c0: 3f6d 75ba 8eb5 6fbd 6caf 58bd 2aaa 37bd
000001d0: ddce 1e3d 7fe8 9cbc d20c 04bd 8f7b 4b3d

fc2.weight f4 [84, 120]
0.0800829 0.07202328 0.03229352 0.10650046 0.038672816 0.016023504 0.10445633 0.07350055
-0.0016769258 -0.06038563 0.07434076 -0.07932463 -0.03685874 -0.0020702623 0.14938867 -0.014084791
0.0045249327 0.024249263 0.061961595 -0.028916493 -0.09986365 -0.113269925 0.07938223 0.014245359
0.024001898 0.03839225 -0.04000881 0.0009796551 -0.041910753 -0.073713675 0.14119372 0.00034885085
-0.07718713 0.0462381 0.01295502 0.1113017 -0.019684756 0.04871779 -0.09225931 -0.06917348
-0.045618102 -0.07768089 -0.00020739788 0.05210138 0.031372156 -0.044979393 0.056439232 -0.13749637
-0.025161305 -0.057264064 0.009940815 0.05461769 0.073961385 -0.12548853 0.10366698 0.06516387
-0.0259604 -0.014315846 -0.058124106 0.032683086 0.0591718 0.075102575 0.01962977 0.057263203
-0.07065163 0.0093537895 -0.021625523 -0.0121907955 -0.06854698 0.029881716 -0.08783683 0.028029772
-0.095542155 0.067668445 -0.06958825 0.0939825 -0.024096256 0.08714318 -0.024724174 -0.036317408
-0.019206231 0.11568874 -0.027341826 0.0774078 0.0067762854 -0.006204296 0.03653605 -0.0067844284
0.06298633 0.027112499 -0.016009612 -0.008044679 -0.009221846 0.052751005 -0.04539517 -0.04993121
0.0011065773 0.008960654 0.119275436 -0.02472188 0.018833114 -0.047502745 0.12065568 -0.006085946
0.103089474 0.036893323 -0.06725098 -0.0684719 0.082772635 -0.039099045 0.022873882 0.028652284
0.090760864 0.032330357 -0.14564382 -0.041303217 0.06501397 0.14329958 0.05556776 0.09916554
0.060276307 0.0494266 0.07466989 -0.06320115 -0.075914904 0.06305452 0.014404092 -0.08960011
0.027482148 0.031474624 -0.07655652 0.050736357 0.04238087 -0.07134952 0.0579686 0.0074713775
-0.072962284 0.09421932 0.045787748 -0.015239551 0.063734904 0.01179405 -0.08607975 -0.066916205
0.05481249 -0.028679969 -0.104523204 0.077788524 0.028457494 0.08289523 -0.09187343 -0.0035847614
-0.08408131 0.010330682 -0.0057018963 0.08695501 -0.0121367965 -0.036557436 -0.042191457 -0.0616599
0.06524507 -0.060467545 -0.0455289 0.01051449 -0.06286462 -0.010390022 -0.075931445 0.00046075264
-0.053476848 -0.013617033 0.051687445 -0.031061918 0.07707391 -0.009009734 0.011406427 0.06917652
0.046740204 -0.067609936 -0.05217988 -0.026989391 0.055963166 -0.017267872 0.022082105 -0.006368906
-0.03981307 0.07039573 -0.067287505 0.054401483 0.02963867 0.027183559 -0.06498015 0.0880082
0.013617815 0.030672811 -0.08510421 -0.071854085 -0.094915785 0.03075351 0.08452701 -0.015501747
0.03699712 -0.04862845 -0.045306925 0.015267065 -0.08641045 0.00786257 -0.019137373 -0.017972235
0.069436565 0.035097357 -0.003307093 0.06069698 0.038824383 0.08090903 -0.086967945 0.099991985
-0.08124029 -0.019869542 -0.010564401 -0.072900906 -0.09451625 -0.017052613 0.0007006291 0.06560873
0.044033032 -0.04736173 0.034282174 0.08269059 -0.07679549 0.023394963 -0.02890329 0.06129893
-0.012052383 0.09767402 -0.07404348 -0.0725228 0.0858182 0.0790999 0.023481006 0.05121683
-0.037926566 -0.032047346 0.059255093 -0.07333283 -0.047049366 -0.044250164 0.015856523 -0.027442388
0.07748929 -0.04721151 -0.10791839 -0.033137158 0.024291553 0.02809752 -0.03165827 -0.06511039
00000000: 8102 a43d f180 933d 3646 043d ea1c da3d
00000010: 6367 1e3d b943 833c 33ed d53d 7587 963d
00000020: 4bcc dbba ec56 77bd f83f 983d f474 a2bd
00000030: 31f9 16bd 3dad 07bb 58f9 183e e5c3 66bc
00000040: e345 943b 64a6 c63c 71cb 7d3d 48e2 ecbc
00000050: 5085 ccbd 10fa e7bd 2793 a23d 5e65 693c
00000060: a19f c43c 3141 1d3d 47e0 23bd c567 803a
00000070: 9caa 2bbd 32f7 96bd 1695 103e f8e5 b639
00000080: 4914 9ebd 2964 3d3d 4b41 543c 25f2 e33d
00000090: ed41 a1bc 4e8c 473d 73f2 bcbd d3aa 8dbd
000000a0: 0cda 3abd 2917 9fbd f278 59b9 4268 553d
000000b0: 1780 003d 503c 38bd d32c 673d d9cb 0cbe
000000c0: 151f cebc b98d 6abd cdde 223c cdb6 5f3d
000000d0: 1179 973d 1180 00be 5b4f d43d a374 853d
000000e0: e8aa d4bc 038d 6abc 8b13 6ebd b3de 053d
000000f0: 215e 723d 61cf 993d 9dce a03c d28c 6a3d
00000100: cdb1 90bd a340 193c 0228 b1bc e7bb 47bc
00000110: 5c62 8cbd 80ca f43c cce3 b3bd b19e e53c
00000120: 9bab c3bd c195 8a3d 4984 8ebd e679 c03d
00000130: 8365 c5bc 2078 b23d 5a8a cabc 90c1 14bd
00000140: 6356 9dbc 38ee ec3d f7fb dfbc fb87 9e3d
00000150: 9a0b de3b 684d cbbb d3a6 153d e94f debb
00000160: fafe 803d 081b de3c 9726 83bc d4cd 03bc
00000170: 3a17 17bc 7011 583d 49f0 39bd ab84 4cbd
00000180: 930a 913a b5cf 123c ae46 f43d 8a85 cabc
00000190: e747 9a3c 3d92 42bd 531a f73d 9e6c c7bb
000001a0: 9320 d33d 741d 173d e2ba 89bd ff3a 8cbd
000001b0: b384 a93d 5226 20bd 0262 bb3c 32b8 ea3c
000001c0: d5e0 b93d d66c 043d a723 15be 902d 29bd
000001d0: 0b26 853d 20bd 123e 059b 633d 4d17 cb3d
000001e0: 4ae4 763d 8c73 4a3d 87ec 983d 9b6f 81bd
000001f0: 4679 9bbd ba22 813d 24ff 6b3c 4380 b7bd
00000200: 3e22 e13c 89eb 003d aac9 9cbd edd0 4f3d
00000210: 9097 2d3d b21f 92bd 7c70 6d3d 75d2 f43b
00000220: 406d 95bd 0ff6 c03d ef8b 3b3d 4faf 79bc
00000230: 7287 823d d53b 413c 944a b0bd 5d0b 89bd
00000240: 1083 603d 41f2 eabc 4310 d6bd 974f 9f3d
00000250: b11f e93c f9c4 a93d 2328 bcbd 51ee 6abb
00000260: d232 acbd 0542 293c f9d6 babb 7815 b23d
00000270: 6ad9 46bc 40bd 15bd f3d0 2cbd 178f 7cbd
00000280: 359f 853d d1ac 77bd 837c 3abd f844 2c3c
00000290: 2abf 80bd e93a 2abc f281 9bbd 2c91 f139
000002a0: 8a0a 5bbd fa19 5fbc 37b6 533d 9075 febc
000002b0: edd8 9d3d 909d 13bc 06e2 3a3c 6bac 8d3d
000002c0: a872 3f3d 1477 8abd 92ba 55bd db18 ddbc
000002d0: a239 653d 5a75 8dbc 88e5 b43c 41b2 d0bb
000002e0: 0813 23bd a32b 903d 08ce 89bd 17d4 5e3d
000002f0: cccc f23c 0eb0 de3c 5014 85bd a53d b43d
00000300: 421d 5f3c 8c45 fb3c 1e4b aebd 3c28 93bd
00000310: 3563 c2bd c9ee fb3c 7f1c ad3d 0afb 7dbc
00000320: 4b8a 173d a02e 47bd c193 39bd b622 7a3c
00000330: f6f7 b0bd 02d2 003c fbc5 9cbc 823a 93bc
00000340: c234 8e3d 3fc2 0f3d d0bb 58bb 669d 783d
00000350: 5106 1f3d a2b3 a53d 401c b2bd 99c8 cc3d
00000360: 4f61 a6bd 73c5 a2bc 4f16 2dbc 124d 95bd
00000370: bc91 c1bd ecb1 8bbc 6caa 373a df5d 863d
00000380: fb5b 343d 60fe 41bd 776b 0c3d af59 a93d
00000390: f446 9dbd cba6 bf3c 98c6 ecbc 9614 7b3d
000003a0: 5c77 45bc 5109 c83d 1ca4 97bd d586 94bd
000003b0: 74c1 af3d 21ff a13d 3d5b c03c bdc8 513d
000003c0: e358 1bbd 1444 03bd 78b5 723d 862f 96bd
000003d0: d6b6 40bd a93f 35bd 8ae5 813c dcce e0bc
000003e0: b4b2 9e3d db60 41bd 5104 ddbd d4ba 07bd
000003f0: 14ff c63c c52c e63c 1aac 01bd 9958 85bd

fc2.bias f4 [84]
0.13097082 -0.029669713 -0.042436905 -0.03156564 -0.061259616 -0.02462748 0.12734364 0.013570961
-0.0338646 0.11679482 -0.078514494 0.049794562 0.061434884 -0.0024290644 -0.025266148 -0.041805997
-0.00972237 0.07381442 0.008039527 -0.06572232 -0.06327247 0.07196671 0.024234192 -0.0063794204
-0.028108023 -0.09928345 0.15004079 -0.07711131 -0.09136656 -0.057488378 0.008733252 -0.008553158
-0.06778426 0.006615267 -0.10149179 0.053157758 -0.020329433 0.12800328 -0.053050615 -0.046727035
0.19406597 0.10891311 -0.01712799 -0.0018967695 -0.09933991 0.04675187 -0.01511675 0.12464798
-0.06463285 0.062487975 -0.017986758 0.1402628 -0.02400078 0.07267512 0.044343136 0.09158861
0.0954772 0.024770802 0.050918605 -0.08561303 -0.015956542 -0.022000298 -0.06873548 -0.08131072
-0.042319592 -0.064002536 -0.03564343 0.0042055054 -0.012251039 0.0118312845 0.0066396543 0.10920125
-0.09426277 -0.088604994 0.100436784 0.029035343 -0.08524482 -0.027292632 0.09904873 0.0023175306
-0.14287728 0.019274788 0.115480475 -0.009807315
00000000: 371d 063e e60d f3bc 52d2 2dbd f94a 01bd
00000010: 5deb 7abd 92bf c9bc 5f66 023e bc58 5e3c
00000020: 9bb5 0abd 1f32 ef3d 35cc a0bd 62f5 4b3d
00000030: 25a3 7b3d f030 1fbb f4fa cebc c43c 2bbd
00000040: 934a 1fbc 042c 973d 38b8 033c 6c99 86bd
00000050: ff94 81bd 4863 933d c986 c63c 750a d1bb
00000060: cc42 e6bc 1f55 cbbd 4ba4 193e 89ec 9dbd
00000070: 641e bbbd ef78 6bbd ea15 0f3c 8b22 0cbc
00000080: 79d2 8abd e2c4 d83b edda cfbd f3bb 593d
00000090: e989 a6bc 4b13 033e 9a4b 59bd d964 3fbd
000000a0: 3bb9 463e d60d df3d 0050 8cbc 069d f8ba
000000b0: b972 cbbd e47e 3f3d 3fac 77bc 7147 ff3d
000000c0: 3a5e 84bd 64f3 7f3d f758 93bc 0da1 0f3e
000000d0: 499d c4bc b1d6 943d 26a1 353d cf92 bb3d
000000e0: 8d89 c33d 23ec ca3c 0790 503d e255 afbd
000000f0: 4bb7 82bc f839 b4bc 30c5 8cbd 3c86 a6bd
00000100: 4f57 2dbd c313 83bd d8fe 11bd 56ce 893b
00000110: 95b8 48bc 01d8 413c 7591 d93b e8a4 df3d
00000120: d70c c1bd 8976 b5bd cdb1 cd3d 87db ed3c
00000130: d694 aebd cc94 dfbc 10da ca3d b6e1 173b
00000140: 6c4e 12be 29e6 9d3c 0781 ec3d dcae 20bc

fc3.weight f4 [10, 84]
-0.109800115 -0.065703556 0.021310743 0.15966569 0.101074204 -0.20214812 0.1679328 0.14510919
-0.076584704 0.16220893 0.17854999 -0.04340853 -0.17303152 -0.0351094 -0.17918442 0.07250651
-0.0057750763 -0.008912456 0.082978934 0.05242117 0.0035742007 -0.028051853 0.058482062 0.046274543
0.11876181 0.1010524 0.08254923 -0.023857906 -0.025144206 0.06894485 0.0711239 -0.0046050944
-0.035039186 -0.13871467 0.08886501 -0.023699732 0.069558665 -0.007905827 -0.08397289 0.05291331
-0.10483584 -0.059746187 -0.04179745 -0.01689666 -0.11102065 -0.10769434 0.07734096 0.06969037
-0.07526175 -0.1435808 0.029493842 -0.10332756 -0.01467529 0.09619975 -0.0770736 0.056524266
0.032661278 0.09877795 -0.075656585 0.12682278 -0.048467264 0.09143867 0.0013408549 0.1078646
0.0045701023 -0.06336698 -0.08966858 -0.12765802 -0.11176483 0.2505051 0.09653547 -0.050309878
0.005648856 0.05878083 -0.08221106 -0.037241735 0.09804062 0.10084463 0.033899114 0.059445318
0.1028084 0.1251754 0.14253616 -0.053024158 -0.28378102 0.00080697105 0.005234577 -0.09336472
0.07697072 0.20431443 -0.14065084 -0.000748721 -0.04599573 -0.10817927 0.13208507 -0.0035311987
0.09856756 -0.0994636 0.016233673 0.23582453 0.08475327 -0.17985696 -0.05985195 0.042343974
0.17293777 -0.14574552 0.18875319 0.027583472 -0.019977309 -0.011348211 -0.025286913 -0.04019861
-0.026516939 0.061922446 -0.118281215 0.068281025 0.118194245 0.07775003 0.1587504 -0.1343715
0.06741605 -0.2134388 -0.07646486 0.00669898 -0.062977195 0.014963996 0.081115745 0.09343619
0.011334908 0.08896157 0.05831539 -0.13595514 0.014567298 0.08538818 0.2031765 -0.2632891
0.10073477 0.051089164 -0.09795307 -0.17685911 0.04097987 -0.02095528 -0.1673802 -0.034949575
-0.09018638 -0.18199037 -0.026430639 0.12353641 0.003201628 0.057444315 -0.049398247 -0.018133847
0.15567946 0.05976691 0.038705293 -0.0035112689 -0.094828576 0.072419845 0.042441685 0.09798954
-0.039727528 -0.04848397 -0.2764187 0.08957896 0.050561804 0.024028573 0.021375425 -0.01295353
0.1352623 -0.11233202 -0.11125527 -0.008217675 -0.066388935 -0.1390253 0.17235662 0.0057077943
0.08832469 -0.043440364 -0.031600922 -0.027940825 0.029371418 0.0037201352 0.15354036 0.10228751
0.015780257 0.041999426 -0.04367769 -0.10203546 -0.22408897 0.08611936 -0.026552185 0.0812087
-0.03901263 -0.06054337 0.1388041 0.022416629 0.09954408 -0.13387157 0.20093714 0.067213535
-0.13054019 0.10236306 0.06296452 0.04991016 0.0035538815 -0.106337465 -0.049080472 -0.053742673
0.17021884 -0.013506547 0.010251478 -0.045780376 -0.048117332 0.10481783 0.09950046 0.05387309
-0.006029929 0.095322125 0.043023128 0.14638993 -0.1135547 -0.14054114 0.10373318 0.1683644
0.04768064 0.16136149 0.13798733 0.03328042 -0.023036525 -0.037056766 -0.039176393 0.07573421
-0.0286564 -0.09671627 -0.17326477 0.03402878 -0.115247354 -0.112087905 -0.044370744 0.03000153
-0.0977362 -0.11021796 0.07379293 -0.0010357186 0.06652413 0.030797165 0.016038353 -0.09458985
0.03561198 0.008551714 -0.0005285117 -0.093249165 0.21737945 0.03597462 -0.018930273 -0.027789677
00000000: e2de e0bd 968f 86bd de93 ae3c 677f 233e
00000010: feff ce3d ebff 4ebe 93f6 2b3e 8197 143e
00000020: 71d8 9cbd 191a 263e cfd5 363e 25cd 31bd
00000030: 2d2f 31be e0ce 0fbd 1f7c 37be 4b7e 943d
00000040: da3c bdbb 8d05 12bc dcf0 a93d 95b7 563d
00000050: 233d 6a3b 00cd e5bc e38a 6f3d 608a 3d3d
00000060: 6439 f33d 90f4 ce3d 920f a93d a871 c3bc
00000070: 39fb cdbc f532 8d3d 68a9 913d 55e6 96bb
00000080: 4085 0fbd 380b 0ebe dcfe b53d f125 c2bc
00000090: c674 8e3d 7187 01bc fbf9 abbd a0bb 583d
000000a0: 2cb4 d6bd 6bb8 74bd ce33 2bbd dd6a 8abc
000000b0: cb5e e3bd da8e dcbd f064 9e3d d3b9 8e3d
000000c0: d522 9abd d806 13be 129d f13c 669d d3bd
000000d0: a170 70bc 6004 c53d c3d8 9dbd fd85 673d
000000e0: d5c7 053d 184c ca3d d7f1 9abd d5dd 013e
000000f0: 9c85 46bd 3344 bb3d a0bf af3a 1ee8 dc3d
00000100: ccc0 953b 8cc6 81bd 29a4 b7bd c9b8 02be
00000110: f6e4 e4bd 3442 803e 63b4 c53d bb11 4ebd
00000120: 0a1a b93b 2bc4 703d 465e a8bd ca8a 18bd
00000130: 85c9 c83d a187 ce3d ccd9 0a3d ef7c 733d
00000140: 368d d23d fb2d 003e 00f5 113e dc2f 59bd
00000150: bf4b 91be e98a 533a d186 ab3b 0136 bfbd
00000160: d3a2 9d3d cd37 513e c606 10be d145 44ba
00000170: 0566 3cbd 188d ddbd 4f41 073e af6b 67bb
00000180: cadd c93d 92b3 cbbd 7bfc 843c fc7b 713e
00000190: 1f93 ad3d 6c2c 38be 5127 75bd e070 2d3d
000001a0: 9916 313e 503e 15be 8448 413e bcf6 e13c
000001b0: 74a7 a3bc d9ed 39bc 8026 cfbc 4ca7 24bd
000001c0: 0d3a d9bc 64a2 7d3d 6c3d f2bd ecd6 8b3d
000001d0: d30f f23d 683b 9f3d 778f 223e af98 09be
000001e0: 6d11 8a3d b38f 5abe 9c99 9cbd 1e83 db3b
000001f0: 30fa 80bd 8c2b 753c 0320 a63d 795b bf3d
00000200: 0db6 393c 7c31 b63d 1edc 6e3d d337 0bbe
00000210: adab 6e3c 00e0 ae3d 800d 503e d4cd 86be
00000220: 084e ce3d df42 513d 9f9b c8bd 8e1a 35be
00000230: 82da 273d 68aa abbc b765 2bbe 4927 0fbd
00000240: a3b3 b8bd af5b 3abe 1185 d8bc a800 fd3d
00000250: 68d2 513b bb4a 6b3d d155 4abd 6f8d 94bc
00000260: 706a 1f3e 26ce 743d 7189 1e3d 511d 66bb
00000270: 7c35 c2bd db50 943d 55d7 2d3d bdae c83d
00000280: 55b9 22bd 2197 46bd c086 8dbe 2c75 b73d
00000290: e519 4f3d 92d7 c43c 841b af3c 0b3b 54bc
000002a0: 3382 0a3e 550e e6bd ced9 e3bd 6da3 06bc
000002b0: ecf6 87bd a65c 0ebe 417e 303e 7308 bb3b
000002c0: 93e3 b43d 86ee 31bd f86f 01bd 28e4 e4bc
000002d0: 549c f03c 83cd 733b af39 1d3e 1d7c d13d
000002e0: 9945 813c 9707 2c3d 61e7 32bd f8f7 d0bd
000002f0: 9477 65be 595f b03d f883 d9bc bf50 a63d
00000300: b5cb 1fbd 53fc 77bd a922 0e3e 14a3 b73c
00000310: c4dd cb3d a115 09be 77c2 4d3e 40a7 893d
00000320: 54ac 05be b9a3 d13d 8bf3 803d 996e 4c3d
00000330: 3de8 683b 75c7 d9bd 9b08 49bd 4721 5cbd
00000340: d94d 2e3e 904a 5dbc d1f5 273c 3484 3bbd
00000350: ae16 45bd bbaa d63d e6c6 cb3d 07aa 5c3d
00000360: b696 c5bb 3f38 c33d 0539 303d 3ee7 153e
00000370: 5e8f e8bd 04ea 0fbe 1072 d43d b867 2c3e
00000380: c64c 433d f23b 253e 8d4c 0d3e 0d51 083d
00000390: 18b7 bcbc d6c8 17bd 6d77 20bd 8a1a 9b3d
000003a0: d4c0 eabc 2e13 c6bd 526c 31be c361 0b3d
000003b0: ce06 ecbd 588e e5bd 19be 35bd c5c5 f53c
000003c0: eb29 c8bd f4b9 e1bd bf20 973d f3c0 87ba
000003d0: ce3d 883d 564a fc3c dd62 833c 53b8 c1bd
000003e0: dedd 113d 7d1c 0c3c d28b 0aba 6bf9 bebd
000003f0: b898 5e3e 205a 133d a913 9bbc 2da7 e3bc

fc3.bias f4 [10]
0.054223217 -0.35101327 0.19577609 -0.056071375 0.24471024 -0.044537753 0.07580816 -0.12832887
0.16062294 -0.23364742
00000000: 2a19 5e3d 03b8 b3be 8779 483e 19ab 65bd
00000010: 5295 7a3e 386d 36bd 4f41 9b3d a568 03be
00000020: 577a 243e 4541 6fbe
