model.pth (torch, 251292 bytes, 10 tensors)

conv1.weight f4 [6, 3, 5, 5]
0	0x3d5b16d5	0.05348857
1	0x3d1dce3e	0.038526766
2	0xbdd4955c	-0.103800505
3	0xbd820a41	-0.06349612
4	0x3ce43b00	0.027860165
5	0x3e218024	0.15771538
6	0x3e437e65	0.19091184
7	0x3dd37696	0.10325353
8	0xbdb8be2c	-0.090206474
9	0xbda13312	-0.07871069
10	0x3d2dfc8b	0.042477172
11	0x3e73e00b	0.23815934
12	0x3e3928e2	0.18082002
13	0x3e1f0891	0.15530612
14	0xbdfb6b39	-0.122763105
15	0x3e116771	0.14199616
16	0x3ea0f35f	0.31435677
17	0x3ebe0f25	0.3712093
18	0x3e6c1662	0.23055413
19	0x3e318f06	0.17339715
20	0x3dd76f08	0.105192244
21	0x3e18555f	0.14876316
22	0x3ee14e69	0.44005135
23	0x3e45117e	0.19244954
24	0x3dec4990	0.115374684
25	0xbe37caf2	-0.17948511
26	0x3cf1de23	0.029524868
27	0xbdb3146c	-0.087441295
28	0xbde14e00	-0.110012054
29	0x3d0894a2	0.033344872
30	0xbd0ce272	-0.034395643
31	0xbc60030a	-0.0136726
32	0xbcac8cba	-0.021063197
33	0xbdb57a7e	-0.08861254
34	0xbe9dfd44	-0.3085729
35	0x3a89aa1f	0.001050297
36	0x3dc59ceb	0.0964907
37	0x3dd0bfcc	0.10192832
38	0xbe882430	-0.2659011
39	0xbebe49dd	-0.37165728
40	0xbdc5e454	-0.09662691
41	0xbd3d6e4e	-0.046247773
42	0xbd84df88	-0.06487948
43	0xbe3f5069	-0.18683018
44	0xbec545df	-0.3852987
45	0xbe803dfc	-0.2504729
46	0xbdeda77f	-0.11604213
47	0xbe0926c3	-0.13393693
48	0xbe5daecd	-0.21648712
49	0xbeb37688	-0.3505137
50	0x3dfeb714	0.12437263
51	0x3e55fdfe	0.20897672
52	0x3e62976b	0.22128074
53	0x3e5e19aa	0.21689478
54	0x3e3ddfa7	0.18542348
55	0x3df77be2	0.12084176
56	0x3ee6ed5b	0.45102963
57	0x3e8a3209	0.269913
58	0xbcfd1ae1	-0.030896606
59	0xbdd7841c	-0.10523245
60	0x3e76196b	0.24033134
61	0x3ebb32c2	0.36562163
62	0x3e9114dc	0.28336227
63	0x3dee8abe	0.11647557
64	0xbe96a267	-0.29420778
65	0x3d32ee89	0.043684516
66	0x3e278640	0.16359806
67	0x3e86d751	0.26336148
68	0x3d43814b	0.047730725
69	0xbdf7add8	-0.12093705
70	0xbe819244	-0.25306904
71	0xbc5ad2aa	-0.01335589
72	0x3dd8c0b6	0.10583632
73	0x3d9698b2	0.07353343
74	0xbcf4f535	-0.02990208
75	0xbe2ad168	-0.16681445
76	0xbe05ba73	-0.13059406
77	0xbdd586b0	-0.1042608
78	0xbe256080	-0.16150093
79	0x3a9783e7	0.0011559696
80	0xbebe0dfb	-0.3712004
81	0xbf8826d5	-1.063685
82	0xbf5260f7	-0.82179207
83	0xbf0c350a	-0.5476843
84	0xbd9516ae	-0.072797164
85	0x3df09568	0.11747247
86	0x3cc27f77	0.02374242
87	0xbe7a779f	-0.24459694
88	0xbe5d6b1d	-0.21622892
89	0xbdaacf40	-0.08340311
90	0x3eeb50d7	0.45960113
91	0x3f5869d1	0.84536463
92	0x3ee9cc18	0.45663524
93	0x3e831c7c	0.2560767
94	0xbdd2774f	-0.102766626
95	0x3e9648ca	0.2935241
96	0x3ec0a760	0.37627697
97	0x3eea521e	0.45765775
98	0x3ee7810e	0.45215648
99	0x3ee1759f	0.4403505
100	0x3d8de3b6	0.06928198
101	0xbcbdfdba	-0.023192275
102	0x3e0e12a6	0.13874301
103	0x3df86572	0.12128724
104	0x3e90dcb4	0.28293383
105	0xbe97f656	-0.29680127
106	0xbf4f4ac2	-0.80973446
107	0xbf181083	-0.59400195
108	0xbe3d5e95	-0.18493111
109	0x3e3d7321	0.1850095
110	0xbc2f8852	-0.010713654
111	0x3e2dcd7a	0.16972914
112	0x3d6b8be7	0.05750647
113	0xbe51453c	-0.20436567
114	0x3bad4b8c	0.005288547
115	0x3e571177	0.21002756
116	0x3ef684cf	0.481482
117	0x3eac356f	0.33634517
118	0x3d063379	0.032763932
119	0xbe2db4c3	-0.16963486
120	0xbe3f91fb	-0.18708031
121	0xbdc36675	-0.095410265
122	0x3dfe49f0	0.12416446
123	0x3de3184f	0.11088621
124	0xbd3c114c	-0.045914933
125	0x3d0007f3	0.03125758
126	0xbdbeb68f	-0.09312164
127	0x3e2cae29	0.16863312
128	0x3dfa826f	0.122319095
129	0x3dce93b2	0.100867644
130	0xbe616136	-0.2200974
131	0xbf0b8a1b	-0.5450761
132	0xbf0fd433	-0.56183165
133	0xbe7f8d62	-0.24956277
134	0x3e66bd84	0.22533232
135	0x3e8883d9	0.26663092
136	0x3e37fa31	0.17966534
137	0x3c84bba0	0.016202748
138	0xbda86690	-0.08222687
139	0xbd7fba4e	-0.062433533
140	0x3e839cbb	0.25705513
141	0x3f2352a6	0.63797987
142	0x3ec5a779	0.38604334
143	0x3bb26862	0.0054445723
144	0xbea7dcf5	-0.32785764
145	0xbc6e3167	-0.014538146
146	0xbe8c4e68	-0.2740357
147	0x3dd231c6	0.102634
148	0xbccc5386	-0.02494217
149	0x3c8823ee	0.016618695
150	0x3e8b3e20	0.27195835
151	0xbeb15ed8	-0.34642673
152	0xbe9493e8	-0.29019094
153	0xbdbc682c	-0.09199557
154	0x3df7f79e	0.12107776
155	0x3cd2aeb1	0.025718065
156	0xbf93cf86	-1.1547706
157	0x3db5c734	0.088758856
158	0x3f048611	0.5176707
159	0x3e439042	0.19097999
160	0xbf84799f	-1.0349616
161	0xbe8bd549	-0.2731116
162	0x3f8a1e0a	1.0790417
163	0x3e85cf3b	0.26134667
164	0xbe4c7138	-0.19965065
165	0xbf284864	-0.6573546
166	0x3f8d06f1	1.1017743
167	0x3f16316f	0.5866918
168	0xbf198ab8	-0.59977293
169	0xbd936a70	-0.07198036
170	0x3d58834c	0.05285959
171	0x3f1cafb2	0.6120559
172	0xbe4018b9	-0.18759431
173	0xbeb2277b	-0.34795746
174	0x3e92ccbd	0.28671828
175	0x3ee3489d	0.44391337
176	0xbddf5d1a	-0.109064296
177	0xbd19c776	-0.037543736
178	0x3cef5d08	0.029219165
179	0xbe0d531a	-0.13801232
180	0x3e93c935	0.28864446
181	0xbf4f2829	-0.80920655
182	0x3e5345b5	0.2063206
183	0x3f06ca0e	0.5265206
184	0xbdc7bc45	-0.097527064
185	0xbf2a71d6	-0.6657995
186	0xbe3757b4	-0.1790455
187	0x3f893240	1.071846
188	0x3df0708e	0.11740218
189	0xbf0e1616	-0.5550245
190	0xbe9a8c8c	-0.30185354
191	0x3f876494	1.0577569
192	0x3f1217e2	0.5706769
193	0xbf282806	-0.6568607
194	0xbead0549	-0.33793095
195	0x3d6ab664	0.057302848
196	0x3eab2b6e	0.33431572
197	0xbee7def3	-0.45287284
198	0xbeed4644	-0.4634267
199	0x3dcef4c7	0.10105281
200	0x3d92f196	0.07174985
201	0xbe324d35	-0.17412265
202	0xbe9279c4	-0.28608525
203	0x3d9cc689	0.07655055
204	0x3d89af2c	0.067228645
205	0x3e2e1493	0.17000036
206	0xbf699cf7	-0.91255134
207	0x3bca7ce3	0.0061794384
208	0x3ef51bf8	0.478729
209	0x3cac0853	0.021000063
210	0xbf43d37d	-0.7649458
211	0xbe367b54	-0.17820483
212	0x3f825faf	1.018545
213	0x3e24d639	0.16097344
214	0xbe34f96b	-0.1767327
215	0xbf003983	-0.50087756
216	0x3f770351	0.96489435
217	0x3f06fb40	0.5272713
218	0xbed635ca	-0.41837913
219	0x3dcb55be	0.099284634
220	0x3dd00edd	0.10159085
221	0x3eec238c	0.4612087
222	0xbe6332ea	-0.22187391
223	0xbe7dde96	-0.24791941
224	0x3e88501b	0.26623616
225	0xbcb0f253	-0.021599924
226	0xbdb2b82f	-0.087265365
227	0xbce4a679	-0.027911412
228	0xbd999ec3	-0.075009845
229	0x3e2048f0	0.15652823
230	0xbea84931	-0.3286834
231	0xbed75ca5	-0.4206287
232	0xbe7d88d7	-0.24759232
233	0xbe8dae97	-0.27672264
234	0xbe1ba01f	-0.151978
235	0xbec2fe16	-0.38084477
236	0xbf17e981	-0.59340674
237	0xbf003fe5	-0.50097495
238	0xbefc4440	-0.4927082
239	0xbe250400	-0.16114807
240	0xbe9e82e1	-0.30959228
241	0xbef33093	-0.47497997
242	0xbe974094	-0.29541457
243	0xbe8e6f76	-0.27819413
244	0xbce3244c	-0.027727269
245	0xbb5352ed	-0.0032245473
246	0xbe1f0fae	-0.15533325
247	0xbdc4d704	-0.096113235
248	0x3d60f16c	0.054917738
249	0x3e7ac649	0.24489702
250	0xbcea1b35	-0.028577426
251	0xbd029090	-0.031876147
252	0x3ca7b986	0.020474207
253	0xbda3920b	-0.0798684
254	0xbbd00e7b	-0.0063493825
255	0x3ded702d	0.115936615

conv1.bias f4 [6]
0	0x3f423f77	0.7587809
1	0xbd0a99c1	-0.033838037
2	0x3e72a837	0.23696981
3	0x3fa70961	1.3049737
4	0x3e617460	0.2201705
5	0xbed58927	-0.417062

conv2.weight f4 [16, 6, 5, 5]
0	0x3ea7e266	0.32789916
1	0xbdd4c167	-0.10388451
2	0xbdbf3817	-0.0933687
3	0x3e9228df	0.28546807
4	0x3e0487f1	0.12942483
5	0x3dc41d67	0.095759206
6	0x3e5519da	0.20810643
7	0xbea48265	-0.32130733
8	0x3dfa00ec	0.12207207
9	0x3e3007ab	0.17190425
10	0xbe8ada1e	-0.27119535
11	0x3e239e60	0.15978384
12	0x3df2f789	0.1186362
13	0xbdf7c5d1	-0.12098277
14	0xbd9d5181	-0.07681561
15	0xbe997e57	-0.29979202
16	0xbe206c97	-0.15666424
17	0x3e88ff2c	0.2675718
18	0x3d6c090c	0.057625815
19	0xbbcc6a03	-0.0062382235
20	0x3d5d2ef6	0.053999864
21	0x3d9e89b8	0.077411115
22	0x3dee22ad	0.11627708
23	0xbe46afbd	-0.19402976
24	0x3d89ad59	0.067225166
25	0x3e0d185c	0.13778824
26	0x3e8bad78	0.27280784
27	0xbed25b17	-0.4108512
28	0x3e7b262e	0.24526283
29	0x3e015234	0.12629014
30	0xbeb90a90	-0.3614087
31	0x3efe35f1	0.4965053
32	0x3e4ea8ca	0.20181575
33	0xbe838eea	-0.25694972
34	0x3da99377	0.0828008
35	0xbf1cc71d	-0.6124132
36	0xbdd7ec5b	-0.10543128
37	0x3f1621c1	0.58645254
38	0x3e80413b	0.25049767
39	0xbb8e9cc4	-0.004352184
40	0xbe77b3d2	-0.2418969
41	0xbefec605	-0.49760452
42	0xbe5ee139	-0.21765603
43	0x3ec876ed	0.39153233
44	0x3ee9a9c3	0.4563733
45	0x3dca0fc5	0.09866289
46	0x3c860475	0.016359547
47	0xbe3c42b8	-0.18384826
48	0xbe192d2c	-0.14958638
49	0xbdc70c98	-0.09719199
50	0x3d434107	0.047669437
51	0x3e147051	0.1449597
52	0x3dc78320	0.09741807
53	0x3da21661	0.07914425
54	0x3d1965d1	0.037450615
55	0xba6a76f9	-0.000894412
56	0xbe26ae9a	-0.16277543
57	0xbe38bab3	-0.1803997
58	0x3d6ef477	0.05833861
59	0x3c61b9f9	0.0137772495
60	0xbe16408d	-0.14673062
61	0xbef09485	-0.4698831
62	0xbeae06e7	-0.3398964
63	0xbeae03bd	-0.33987227
64	0xbccbf13d	-0.024895305
65	0xbb434760	-0.0029797181
66	0xbe267764	-0.16256481
67	0xbeb9baf5	-0.3627545
68	0xbea08c21	-0.3135691
69	0xbe01397a	-0.12619582
70	0xbd0903cd	-0.03345089
71	0xbe7b8c44	-0.24565226
72	0xbe8e574f	-0.27800986
73	0xbe7df804	-0.24801642
74	0xbe008867	-0.12552033
75	0xbdab5093	-0.08364978
76	0x3d3f7694	0.046743944
77	0x3d61f95c	0.05516945
78	0x3da7f308	0.082006514
79	0xbda1578e	-0.07878028
80	0xbcf5dbcc	-0.030012034
81	0xbe659c56	-0.22422919
82	0xbd4abda9	-0.04949728
83	0x3d486101	0.048920635
84	0xbd3c5899	-0.04598293
85	0x3e2fd4e0	0.17171049
86	0x3cc1e381	0.023668053
87	0xbe6ea57b	-0.23305313
88	0xbdd0911e	-0.10183929
89	0x3c649e6c	0.013953786
90	0x3e8d14fa	0.27555066
91	0x3d65989c	0.056053743
92	0x3d81acc3	0.0633178
93	0x3babf22c	0.005247375
94	0xbe190c7a	-0.14946166
95	0x3e4d9d0a	0.20079437
96	0x3e141696	0.14461741
97	0x3e05d535	0.13069613
98	0x3d82a797	0.063796215
99	0xbdca1cd7	-0.09868782
100	0xbd94d428	-0.07267028
101	0x3ea8358a	0.32853347
102	0x3c5de455	0.013543208
103	0xbe3ab976	-0.1823481
104	0xbdbbad31	-0.09163893
105	0xbe6f7f7d	-0.23388477
106	0xbc820622	-0.015872065
107	0x3f249875	0.6429513
108	0x3d529b75	0.051417787
109	0xbdfcf8f4	-0.123521715
110	0x3d9549bf	0.072894566
111	0xbf1fed40	-0.6247139
112	0xbe81bff9	-0.25341776
113	0x3ecf0e47	0.4044058
114	0x3e7a246c	0.24427956
115	0x3f2cad55	0.67451984
116	0x3d899c74	0.06719294
117	0xbf349816	-0.70544565
118	0xbe54285c	-0.20718521
119	0x3ea07cc3	0.31345186
120	0x3e13e7cc	0.14443892
121	0x3ee39458	0.44449115
122	0x3ecf7fa9	0.40527084
123	0xbea34ccc	-0.3189453
124	0xbebd184a	-0.36932594
125	0xbdcb0395	-0.099127926
126	0xbdb029ad	-0.08601699
127	0x3caefe6d	0.021361554
128	0x3e4deae6	0.20109138
129	0xbe2f2461	-0.17103721
130	0xbda9334f	-0.082617395
131	0x3cfe00f1	0.031006308
132	0xbe99ff26	-0.30077475
133	0xbd52530d	-0.051348735
134	0x3e41529c	0.18879169
135	0xbd983c99	-0.07433433
136	0xbd875ccd	-0.06609497
137	0xbddd2f2c	-0.10800013
138	0xbd650fbf	-0.05592322
139	0xbd9ad681	-0.075604446
140	0xbed38503	-0.41312417
141	0xbeb961f8	-0.36207557
142	0x3e7b3bc1	0.24534513
143	0x3e812a2b	0.25227484
144	0xbe46e6fd	-0.19424053
145	0x3d88cd88	0.06679827
146	0xbe4d3ad2	-0.2004197
147	0xbe7190ad	-0.23590346
148	0xbd4c6188	-0.0498977
149	0x3e48b85d	0.19601579
150	0x3e1e2981	0.1544552
151	0x3e7af949	0.24509157
152	0xbd957dd4	-0.072993904
153	0x3d06f89f	0.032951947
154	0x3ce33274	0.027734019
155	0x3d9c0e05	0.076198615
156	0x3de1752f	0.11008679
157	0xbd1a45df	-0.03766429
158	0x3c805ed6	0.015670221
159	0xbe34ef6b	-0.17669456
160	0xbddc08e8	-0.10743886
161	0xbd9b0050	-0.07568419
162	0x3e2aedf4	0.16692334
163	0xbe01c5bc	-0.12673086
164	0xbea4fea7	-0.32225534
165	0x3be0c54f	0.0068594585
166	0xbe12a876	-0.14322075
167	0x3edb1f16	0.42797154
168	0x3d9b23ca	0.075751856
169	0xbec375bb	-0.3817576
170	0x3e03c629	0.12868561
171	0xbe410bff	-0.18852232
172	0x3ef249c8	0.47321916
173	0x3d9c1ffb	0.07623287
174	0xbe0f71db	-0.14008276
175	0x3e4d1375	0.20026954
176	0xbd797f8f	-0.060912665
177	0x3deafe5e	0.11474298
178	0x3d8c7a7f	0.06859302
179	0x3cfc0cba	0.030767787
180	0x3e18eb98	0.14933622
181	0xbdbd59ab	-0.092456184
182	0x3c7d5e43	0.015464368
183	0xbdde03c4	-0.10840562
184	0xbde99ab3	-0.1140646
185	0x3cd98c7e	0.02655625
186	0xbeb2244a	-0.3479331
187	0x3cb1bc23	0.021696156
188	0xbd260ec5	-0.04054143
189	0x3dbc5126	0.09195165
190	0xbde4a119	-0.111635394
191	0xbe53c0c9	-0.2067901
192	0xbedea236	-0.43483132
193	0xbe189ee7	-0.14904366
194	0x3c068df2	0.008212553
195	0x3d37aa15	0.044839937
196	0xbc84566c	-0.01615449
197	0xbdd294b9	-0.10282273
198	0xbd49c1fe	-0.04925727
199	0x3e4ab249	0.19794573
200	0x3a471b1e	0.00075952883
201	0x3c917de2	0.01776022
202	0xbb806c0d	-0.0039191307
203	0x3c748349	0.014923879
204	0xbe066edb	-0.13128226
205	0xbd961565	-0.073282994
206	0x3e438315	0.19092973
207	0x3e47d529	0.19514908
208	0xbe20282e	-0.15640327
209	0xbe221b1a	-0.15830651
210	0x3decc891	0.115616925
211	0xbe7e1623	-0.24813132
212	0x3e5f53fe	0.21809384
213	0xbebbfc6a	-0.36716014
214	0xbdc14e35	-0.09438745
215	0x3dbf3f8f	0.09338295
216	0xbee16f8a	-0.4403041
217	0x3f077fd7	0.52929443
218	0xbec74bdf	-0.38925073
219	0x3e80c148	0.25147462
220	0xbe356db1	-0.17717625
221	0x3d58a64a	0.05289296
222	0x3e6b99a8	0.23007834
223	0x3d945bd0	0.07244074
224	0xbd32c766	-0.043647192
225	0xbd564e3a	-0.052320696
226	0x3c47d21f	0.012196093
227	0xbd874ef0	-0.06606853
228	0x3d527afc	0.05138682
229	0x3ecf86bd	0.40532485
230	0x3d49b762	0.049247153
231	0xbcf51c32	-0.029920671
232	0xbe18283a	-0.14859095
233	0xbdbed5a0	-0.093180895
234	0x3de40d4e	0.1113535
235	0xbdb2fcf3	-0.087396525
236	0xbcd771f7	-0.02629946
237	0xbdf91f80	-0.12164211
238	0xbd00a402	-0.03140641
239	0x3e64c24c	0.22339743
240	0x3cdf1edb	0.027236393
241	0x3e0c874c	0.13723487
242	0xbd9dbccb	-0.07702025
243	0xbdb3f1a6	-0.08786325
244	0x3ac26db8	0.0014833724
245	0x3d6a732f	0.057238754
246	0xbd06df55	-0.03292783
247	0xbcccd2a4	-0.025002785
248	0xbe3559bf	-0.17710017
249	0xbda7e994	-0.08198848
250	0x3c55ab31	0.0130413035
251	0xbe8a089a	-0.26959687
252	0x3e2e2b53	0.17008714
253	0x3cebaff2	0.02877042
254	0xbcef74b0	-0.029230446
255	0xbbcffb30	-0.0063470826

conv2.bias f4 [16]
0	0x3f0aff42	0.5429574
1	0xbfb25eda	-1.3935196
2	0x3eaaf465	0.33389583
3	0x3cf5d19c	0.030007176
4	0x3ee912c8	0.4552214
5	0xbeafbf17	-0.34325477
6	0xbe68f005	-0.2274781
7	0xbf4f3c6f	-0.8095159
8	0xbf8e4db8	-1.1117468
9	0xbd92529a	-0.07144661
10	0xbec70f23	-0.38878736
11	0x3fa476a2	1.2848704
12	0xbe6517a0	-0.22372293
13	0xbd973bd5	-0.07384459
14	0x3b536a47	0.003225939
15	0x3e8a492e	0.27008957

fc1.weight f4 [120, 400]
0	0x3c807b77	0.015683873
1	0xbd4cbfa4	-0.04998745
2	0xbd8595fd	-0.065227486
3	0x3e0291ef	0.12750982
4	0x3a85b333	0.00102005
5	0xbd44cbb5	-0.048045833
6	0x3de7fe93	0.11327853
7	0x3da322c3	0.07965615
8	0x3c58923d	0.01321846
9	0xbd7a2a3a	-0.061075427
10	0x3e4290fd	0.19000621
11	0x3d1b474e	0.0379098
12	0xbd7ec6a2	-0.06220115
13	0x3d1cc053	0.038269352
14	0xbe1f3faa	-0.1555163
15	0x3b8576be	0.004072993
16	0x3e36f04f	0.17865108
17	0x3e44179b	0.1914963
18	0xbdd69288	-0.10477167
19	0xbc5e1282	-0.013554217
20	0x3d3ef2d3	0.046618294
21	0x3e11142f	0.14167856
22	0x3e26339f	0.1623063
23	0x3df6d19f	0.12051701
24	0xbbf088a0	-0.0073405057
25	0xbc88ac7a	-0.016683806
26	0x3c853b54	0.016263641
27	0xbda71036	-0.08157389
28	0x3d1ce204	0.038301483
29	0xbd04e411	-0.032444064
30	0x3d6203ba	0.055179335
31	0xbda8b2e4	-0.08237246
32	0xbd1b0b64	-0.03785266
33	0xbdc390c2	-0.09549095
34	0x3ca06b84	0.019582517
35	0xbd3acde2	-0.0456065
36	0x3e122f23	0.14275794
37	0x3df5dfd4	0.120055825
38	0xbd09a4e5	-0.03360452
39	0x3d237a89	0.03991178
40	0x3d4be2a1	0.049776677
41	0x3d924cad	0.07143531
42	0xbdaf6e1f	-0.08565926
43	0x3db100ae	0.08642708
44	0xbd8b48f0	-0.06801021
45	0xbd84a155	-0.06476084
46	0xbc8d9bc0	-0.017286181
47	0xbe3e422a	-0.18579927
48	0xbdea75ec	-0.11448273
49	0x3db5cc41	0.08876849
50	0x3d0fea8a	0.035135783
51	0x3c626884	0.013818864
52	0x3d3d713d	0.04625057
53	0xbc74479c	-0.014909651
54	0x3d535803	0.051597606
55	0x3c9f3da6	0.019438576
56	0xbd71f5b9	-0.05907223
57	0x3d0ae195	0.033906538
58	0xbd557c23	-0.05212034
59	0x3dcf1482	0.101113334
60	0x3e0f027c	0.13965791
61	0xbdd41c6f	-0.10356986
62	0x3d7b0258	0.061281532
63	0xbc435cd9	-0.011923992
64	0x3cea321d	0.028588349
65	0x3d3f0754	0.046637848
66	0xbdd21b0a	-0.102590635
67	0x3d6cf852	0.057854004
68	0xbcce9890	-0.025219232
69	0x3d02955d	0.031880725
70	0xbd7a6df4	-0.061140016
71	0xbda65a5e	-0.08122705
72	0xbe0e9e4e	-0.13927576
73	0xbe0023f5	-0.12513717
74	0x3d72fc33	0.059322547
75	0x3db022a0	0.08600354
76	0xbda92d8b	-0.0826064
77	0xbd5b2dd5	-0.053510506
78	0x3e15ffd6	0.14648375
79	0xbd534678	-0.051580876
80	0xbc428b25	-0.011873995
81	0x3c2f4017	0.010696433
82	0xbd6a0c43	-0.0571406
83	0x3d12c90e	0.035836272
84	0x3c3f18b5	0.011663605
85	0xbdd22e39	-0.102627225
86	0x3c881bc0	0.016614795
87	0xbd518ab4	-0.05115767
88	0x3d256da3	0.04038776
89	0xbbb17d24	-0.0054165293
90	0xbd68ed26	-0.056866787
91	0xbdd33a37	-0.10313838
92	0x3d329a6e	0.043604307
93	0x3d36a2ce	0.044588856
94	0xbc5a5c12	-0.013327615
95	0xba040451	-0.00050360436
96	0xbdcb962b	-0.09940752
97	0xbd4ddbde	-0.05025851
98	0xbcc47d83	-0.02398563
99	0x3e28f340	0.16499043
100	0x3d48318f	0.048875388
101	0xbd90bf63	-0.07067754
102	0xbbf3cc09	-0.0074400944
103	0x3cbd4af8	0.023107037
104	0x3da248bd	0.0792403
105	0x3d4f959c	0.050679788
106	0xbdebaa38	-0.11507076
107	0xbd565d59	-0.052335117
108	0x3ccd7ead	0.025084818
109	0xbd3094c0	-0.04311061
110	0x3db10e02	0.0864525
111	0xbe16671b	-0.14687769
112	0xbc6a9b2d	-0.014319223
113	0xbbd0672e	-0.006359956
114	0xbc7862f2	-0.015160309
115	0xbc99a71a	-0.018756438
116	0xbdd74178	-0.10510534
117	0xbb9e646d	-0.004833749
118	0xbd8e4def	-0.069484584
119	0x3da6e25b	0.08148643
120	0x3e5464a8	0.20741522
121	0x3dce91b5	0.10086385
122	0x3dfc6bd5	0.12325255
123	0x3dc42929	0.09578163
124	0x3c9ae115	0.018906156
125	0x3d6094d9	0.054829452
126	0x3d2ec154	0.04266484
127	0xbda178f7	-0.078844
128	0xbd4977b7	-0.049186435
129	0x3e6292cd	0.22126313
130	0x3c9b9de6	0.01899619
131	0x3d16193a	0.03664515
132	0xbe0c735a	-0.13715878
133	0xbe3af072	-0.18255785
134	0xbdd69457	-0.10477512
135	0x3cec549d	0.02884894
136	0xbc29ba28	-0.0103593245
137	0x3dc9f9bc	0.09862086
138	0xbd8d1664	-0.06889036
139	0xbd5d0dd7	-0.053968277
140	0x3d4e8de9	0.050428305
141	0x3cf09ad9	0.029370712
142	0xbcafe4b8	-0.021471366
143	0x3de98613	0.11402526
144	0xbc7e7c12	-0.01553251
145	0x3e03ed9a	0.12883607
146	0x3d262e2c	0.040571377
147	0xbdf0e396	-0.117621586
148	0x3ce535c1	0.027979733
149	0xba84e337	-0.0010138516
150	0xbcade622	-0.0212279
151	0xbc0186ab	-0.0079056425
152	0x3e294366	0.16529617
153	0xbcad413b	-0.021149268
154	0x3e08937d	0.13337512
155	0xbda11791	-0.07865823
156	0xbe0434cc	-0.12910765
157	0x3c2178b7	0.009855441
158	0x3bac81e0	0.0052645057
159	0xbc0f2683	-0.008737209
160	0x3cb4d969	0.022076325
161	0xbdea73b4	-0.1144785
162	0xbddba7a2	-0.10725333
163	0xbe02b8d5	-0.1276582
164	0x3cf45748	0.029826775
165	0xbd57ece8	-0.052716166
166	0x3d341243	0.04396273
167	0x3cd414b6	0.025888782
168	0xbe35ba03	-0.17746739
169	0xbdda3d1a	-0.106561854
170	0xbcc53041	-0.02407086
171	0xbd0a7f79	-0.033812974
172	0xbd888d6b	-0.06667598
173	0x3d67289e	0.05643522
174	0xbba114b4	-0.004915798
175	0x3e274aea	0.16337171
176	0x3d6a45b5	0.057195384
177	0x3d79e594	0.06100996
178	0xbd071990	-0.032983363
179	0xbcabea62	-0.020985786
180	0x3dd4ce1b	0.10390874
181	0xbcbb015e	-0.0228278
182	0x3e0e60de	0.1390414
183	0xbcbe522e	-0.023232546
184	0x3c90a785	0.017658005
185	0x3c281b12	0.01026036
186	0xbdbfc9c4	-0.093646556
187	0x3d39983d	0.0453112
188	0xbd4eff67	-0.05053654
189	0xbdc368c5	-0.095414676
190	0xbdd35559	-0.10319013
191	0xbd39355f	-0.045216914
192	0xbd23d153	-0.03999455
193	0x38118bbe	3.470084e-05
194	0xb9b80129	-0.0003509608
195	0x3de9cac4	0.114156276
196	0xbd0c49a5	-0.03424992
197	0xbd461868	-0.04836312
198	0x3d4f20d4	0.050568417
199	0x3e094c4b	0.1340801
200	0xbe215899	-0.15756454
201	0xbd54e102	-0.051972397
202	0xbd357e3b	-0.044309836
203	0xbdff94de	-0.12479566
204	0xbe25bd89	-0.16185583
205	0xbd1e1991	-0.0385986
206	0x3d6109a7	0.054940846
207	0x3e11db06	0.14243707
208	0x3dc4417c	0.09582803
209	0xbe078384	-0.13233763
210	0xbdaf5180	-0.08560467
211	0x3d4ea7c1	0.05045295
212	0xbb34fa87	-0.0027615146
213	0xbae68ce6	-0.0017589598
214	0xbdc60503	-0.09668925
215	0xbd32ae5c	-0.043623313
216	0xbd97f454	-0.07419649
217	0x3c788a22	0.015169652
218	0x3cbf1513	0.023325479
219	0x3dfdff22	0.12402178
220	0x3d8f8dc3	0.07009461
221	0xbd900d00	-0.070337296
222	0xbddf5f57	-0.109068565
223	0xbda1c7eb	-0.078994595
224	0x3d1e976c	0.038718626
225	0x3d680b68	0.056651503
226	0xbc54883c	-0.012971934
227	0xbe24f8d4	-0.16110545
228	0xbe14f62d	-0.14547034
229	0xbd96389a	-0.07335015
230	0x3dde6120	0.10858369
231	0xbdf165bf	-0.11786985
232	0x3bf081a3	0.0073396727
233	0xbd672392	-0.056430407
234	0x3d4b3c0e	0.04961782
235	0xb97e78e5	-0.00024268364
236	0x3d64b04b	0.05583219
237	0x3db2fe85	0.08739952
238	0x3db5b58e	0.088725194
239	0xbd1af998	-0.037835687
240	0x3dc1ae1a	0.09457035
241	0x3dce30e9	0.100679226
242	0xbd93ecd1	-0.072229035
243	0xbcfe0abf	-0.031010984
244	0x3dd17e6f	0.102291934
245	0xbccfd9a1	-0.025372328
246	0x3e0b743f	0.13618563
247	0x3d3f3963	0.046685588
248	0xbe3498a1	-0.17636348
249	0x3c2aa052	0.0104142
250	0xbb1a7b58	-0.0023572054
251	0x3d0e5872	0.034752317
252	0xbd44c7b5	-0.048042018
253	0xbe132abd	-0.14371772
254	0xbe0e6a35	-0.13907702
255	0x3dbd20ee	0.092347965

fc1.bias f4 [120]
0	0x3e1436bc	0.14474005
1	0xb8688e3e	-5.5445584e-05
2	0x3c89b97c	0.016812079
3	0x3e16bd01	0.14720537
4	0x3c148f45	0.009067361
5	0x3cc3226f	0.02382013
6	0x3e0b6da0	0.13616037
7	0xbe590e6d	-0.21196909
8	0xbe12e36f	-0.14344572
9	0x3e74c637	0.23903738
10	0x3ce9c76e	0.028537478
11	0xbd9e40d0	-0.07727206
12	0x3d224f17	0.039626207
13	0x3db8fa8e	0.090321645
14	0x3e31ac65	0.1735092
15	0x3ebc12bc	0.36733043
16	0xbdcc99be	-0.099902615
17	0xbe09b33a	-0.13447276
18	0xbd212b97	-0.03934821
19	0x3d00c0d1	0.031433884
20	0x3b500ce9	0.0031745976
21	0xbc879352	-0.01654974
22	0xbd8d1c52	-0.06890167
23	0x3d8bfa05	0.06834797
24	0x3d38dbda	0.04513154
25	0xb8d39a46	-0.0001009
26	0x3d3ce1cf	0.046113785
27	0x3dba7864	0.09104994
28	0x3e21559f	0.15755318
29	0x3e1dfe94	0.15429145
30	0x3e8a1436	0.26968545
31	0x3eb779ff	0.35835263
32	0x3d393eba	0.045225836
33	0x3e1699d7	0.14707123
34	0x3e276f22	0.16350988
35	0x3df5d445	0.12003378
36	0xbe4782af	-0.19483446
37	0x3b9ed52c	0.0048471894
38	0xbd225314	-0.03963001
39	0xbd2b2fe5	-0.041793723
40	0x3dc09c78	0.09404844
41	0x3d001a24	0.03127493
42	0xbe6240ac	-0.22094983
43	0x3de61427	0.112343125
44	0xbd2206f5	-0.039557416
45	0x3e38b2df	0.18036984
46	0x3d9a7057	0.075409584
47	0xbb42693c	-0.0029664775
48	0xbdb2a546	-0.0872293
49	0xbdb56a37	-0.088581495
50	0xbcd88dd9	-0.026434826
51	0x3d31ca09	0.043405566
52	0x3d6c0465	0.05762138
53	0xbc63b1c0	-0.013897359
54	0xbdd73b38	-0.10509342
55	0x3da3ca07	0.07997518
56	0xbbaf42b2	-0.005348527
57	0xbe64b31c	-0.2233395
58	0xbd9ea8ff	-0.07747077
59	0x3e414e99	0.18877639
60	0x3e66dd57	0.22545372
61	0xbd8a8372	-0.067633525
62	0x3c8d6dd6	0.017264288
63	0xbe410cbd	-0.18852516
64	0x3e407179	0.18793286
65	0x3d539e7e	0.05166482
66	0x3e15bee8	0.14623606
67	0x3e50354d	0.20332833
68	0xbd1fa470	-0.03897518
69	0x3e6a7f98	0.22900236
70	0xbd31187a	-0.043236233
71	0x3e3db40e	0.18525717
72	0x3df80a71	0.121113665
73	0xbc1622a2	-0.009163531
74	0xbe16cf81	-0.14727594
75	0xbe8a3664	-0.26994622
76	0x3d3ef6a1	0.046621922
77	0xbe01581f	-0.12631272
78	0x3d9a7eeb	0.07543739
79	0x3c18778f	0.009305849
80	0xbc8f667d	-0.017504925
81	0x3baa94bd	0.0052057193
82	0x3ddb819d	0.10718081
83	0x3c924204	0.017853744
84	0xbe2111af	-0.15729402
85	0xbecd64b6	-0.401159
86	0x3e22a92d	0.15884848
87	0x3c0f5d44	0.008750264
88	0xbe031ed5	-0.1280473
89	0x3de4344b	0.111427866
90	0xbdae27d5	-0.08503691
91	0x3d15bd9f	0.03655779
92	0xbdf136d6	-0.11778037
93	0xbe453966	-0.19260177
94	0x3e0d54f5	0.1380194
95	0x3e3404ef	0.17580007
96	0xbe0a02b4	-0.13477594
97	0xbe11c7c2	-0.14236358
98	0xbe0c7e80	-0.13720131
99	0x3d053713	0.032523226
100	0xbd40caa7	-0.047068264
101	0x3e3b4e17	0.18291508
102	0x3c870f56	0.016486805
103	0x3e8fa3a1	0.28054526
104	0xbeb1394f	-0.34614035
105	0x3cc81cfd	0.024427885
106	0xbc7ee6a4	-0.015557919
107	0x3e2c6ddc	0.16838783
108	0x3d8f7807	0.07005315
109	0x3e60ecac	0.21965283
110	0xbe33be70	-0.17553115
111	0x3e4cabde	0.19987437
112	0xbdd28288	-0.10278803
113	0xbdb2cd8f	-0.087306134
114	0xbe3cc148	-0.18433106
115	0x3d59968d	0.053122092
116	0xbdd21582	-0.102580085
117	0x3e24a532	0.16078642
118	0xbdf8fa7d	-0.12157152
119	0xbdb03dab	-0.08605512

fc2.weight f4 [84, 120]
0	0x3c0ba196	0.008522412
1	0xbd9ed3e8	-0.07755262
2	0x3e2bdd56	0.16783652
3	0x3e0d840c	0.13819903
4	0x3ccfa7dc	0.025348596
5	0x3dc4b74f	0.09605276
6	0xbaad2884	-0.0013210927
7	0x3d74368c	0.059622332
8	0x3d9a8f3d	0.07546852
9	0xbc3617ec	-0.011114102
10	0x3d8facc7	0.070153765
11	0xbd493903	-0.049126636
12	0x3e39bafc	0.18137735
13	0x3ceddcc9	0.029035943
14	0xbe0debff	-0.13859557
15	0x3d98aaf0	0.07454479
16	0xbd12c095	-0.03582819
17	0x3d654291	0.055971686
18	0x3cf183c6	0.02948178
19	0x3aece3da	0.0018073276
20	0xbe0aadb7	-0.1354283
21	0x3dd27793	0.10276713
22	0x3b820177	0.00396746
23	0xbc4e933a	-0.012608344
24	0x3e4c277a	0.19936934
25	0xbe2ff116	-0.1718181
26	0xbdb68cc3	-0.08913567
27	0x3b637082	0.003470451
28	0xbd5585ef	-0.052129682
29	0xbe0ab04d	-0.13543816
30	0xbd8ccf53	-0.068754815
31	0x3e24bde8	0.16088068
32	0x3dae14f6	0.08500092
33	0xbce42f93	-0.027854716
34	0x3e16934f	0.14704631
35	0xbda1e298	-0.079045475
36	0xbdaea3a8	-0.08527309
37	0xbdc555c3	-0.096354984
38	0x3e13a549	0.1441852
39	0xbe970da3	-0.29502591
40	0x3dd263b8	0.10272926
41	0x3c877d70	0.016539305
42	0x3da104a6	0.07862215
43	0xbd1937dd	-0.03740679
44	0xbe3573a6	-0.17719898
45	0xbd1c0d95	-0.03809889
46	0xbbf54a16	-0.0074856384
47	0xbdca8268	-0.09888154
48	0x3d9abdaa	0.07555707
49	0x3ca9d694	0.020732202
50	0xbe19c795	-0.15017541
51	0x3e1b13a6	0.15144214
52	0x3d0e8bae	0.034801178
53	0x3d42a829	0.04752365
54	0x3b08ee51	0.0020894
55	0x3e881c28	0.26583982
56	0x3db6132c	0.088903755
57	0xbe45dace	-0.19321749
58	0x3e86f9fc	0.26362598
59	0xbcfc1e3d	-0.030776137
60	0x3d12f21a	0.035875417
61	0x3bd89358	0.0066093616
62	0x3c7b725f	0.015347092
63	0x3d5a0ddb	0.05323587
64	0xbb9efcd5	-0.0048519173
65	0x3e0a835d	0.13526674
66	0xbde4bb70	-0.11168563
67	0xbe35341c	-0.1769566
68	0x3c34d7bf	0.011037766
69	0xbe296e04	-0.16545874
70	0x3de8880c	0.11354074
71	0xbd3fe170	-0.046845853
72	0x3d5c5320	0.05379021
73	0x3d6558a0	0.055992723
74	0xbda4c578	-0.08045477
75	0x3de0aca5	0.10970429
76	0xbdf1ae9e	-0.11800884
77	0x3df80b42	0.12111522
78	0x3e2886bc	0.16457647
79	0xbe9245d5	-0.28568903
80	0xbda61e9b	-0.08111306
81	0xbe2da938	-0.16959083
82	0x3e4924d9	0.19642963
83	0x3d88453a	0.06653829
84	0x3d51f089	0.051254783
85	0xbd5ab309	-0.053393397
86	0x3e818706	0.25298327
87	0x3d8b04d9	0.06788034
88	0x3e33aef6	0.17547211
89	0xbd51c760	-0.05121553
90	0x3c17d25a	0.00926646
91	0x3c9a8266	0.018861007
92	0xbd9ad420	-0.07559991
93	0x3e0c272e	0.13686821
94	0x3c223f42	0.009902777
95	0xbe7d82b0	-0.24756885
96	0xbd006545	-0.03134658
97	0xbda66ccf	-0.08126222
98	0xbc4f6fd2	-0.012660937
99	0xbd23dce9	-0.0400056
100	0x3d365cdf	0.044522163
101	0xbd118d96	-0.035535417
102	0xbe0d5fa6	-0.13806018
103	0xbd103343	-0.035205137
104	0x3e097571	0.13423707
105	0xbe096243	-0.1341639
106	0xbe05eacd	-0.1307785
107	0xbcb03d53	-0.021513617
108	0xbe522d10	-0.20525002
109	0x3d131534	0.035908893
110	0xbd6926c1	-0.056921724
111	0x3d4b2e7f	0.04960489
112	0x3e1e6c3e	0.15470979
113	0xbe0f3213	-0.13983946
114	0x3dff2d62	0.12459828
115	0xbd779cbe	-0.060452215
116	0xbdeeb969	-0.11656458
117	0x3d9a1590	0.07523644
118	0x3e17e18d	0.14832135
119	0x3db1d3ab	0.086829506
120	0x3e8471af	0.25867984
121	0xbd5afdf6	-0.053464852
122	0xbd91fd11	-0.07128347
123	0x3e929d7c	0.28635776
124	0xbd5ee228	-0.0544149
125	0xbcf1240d	-0.029436136
126	0x3d7a37cf	0.06108838
127	0xbe60e6ca	-0.21963039
128	0xbd5a950a	-0.05336479
129	0x3be96671	0.0071228077
130	0xbb0b63d5	-0.0021269221
131	0x3d89c5f8	0.06727213
132	0x3d2b15bb	0.04176877
133	0xbc9a492f	-0.018833725
134	0xbe86b2a6	-0.26308173
135	0x3dd6ace4	0.10482195
136	0xbd9748de	-0.07386945
137	0xbd199f1f	-0.037505265
138	0x3e1d27d7	0.15347229
139	0xbe418715	-0.18899186
140	0x3e1b7f5f	0.15185307
141	0xbd84c2f5	-0.064824976
142	0xbdf7c99c	-0.12099001
143	0x3c377149	0.011196443
144	0x3d356b67	0.04429188
145	0x3c2ea1c2	0.010658683
146	0xbdaf2415	-0.08551804
147	0x3e22bc9e	0.15892264
148	0x3dde9e5d	0.10870049
149	0xbdb46347	-0.08807998
150	0xbe8d4498	-0.27591395
151	0x3d689cd5	0.05679019
152	0xbe33b945	-0.17551143
153	0x3e2a48c8	0.16629326
154	0xbb255a6f	-0.0025230905
155	0x3d909c95	0.07061116
156	0x3ce8bfff	0.028411863
157	0x3e21861c	0.15773815
158	0x3c9c617d	0.019089455
159	0xbc8b65b7	-0.017016275
160	0xbc4c1a38	-0.012457423
161	0xbd584c3d	-0.05280708
162	0xbd58e084	-0.05294849
163	0x3d227a37	0.039667334
164	0xbdb1afa7	-0.08676081
165	0xbd3363c1	-0.043796305
166	0x3dc2ba2b	0.09508165
167	0x3ba9ac9a	0.0051780464
168	0xbdee8b45	-0.11647657
169	0x3e62981a	0.22128335
170	0x3dba81a8	0.09106761
171	0xbdab445c	-0.08362648
172	0xbd742bd2	-0.059612103
173	0x3c8ef266	0.017449569
174	0xbd1ff337	-0.039050307
175	0xbe00824a	-0.12549701
176	0x3c9a69e6	0.018849324
177	0xbd2edb95	-0.04268988
178	0x3c555faf	0.013023301
179	0x3d9e635a	0.077337936
180	0x3e48d31e	0.19611785
181	0x3c8ff635	0.017573455
182	0xbe4e00fd	-0.20117564
183	0xbd73c5ad	-0.05951469
184	0x3dc7ae69	0.09750063
185	0x3e2720d6	0.1632112
186	0x3d2470a6	0.040146492
187	0x3ddd0cfe	0.10793494
188	0xbe949ea4	-0.29027283
189	0x3d638de9	0.055555258
190	0x3d0576c7	0.032583978
191	0x3e25d62e	0.16194984
192	0xbd6b5e9f	-0.057463285
193	0x3cec8eaf	0.02887663
194	0x3dbe8389	0.09302432
195	0xbe6806a5	-0.22658785
196	0x3e571999	0.21005858
197	0xbe768e32	-0.2407768
198	0xbd4ca4f5	-0.049962003
199	0xba0dccce	-0.00054092414
200	0x3d9e2865	0.077225484
201	0x3c2f06e4	0.010682795
202	0x3c0d3643	0.008618894
203	0xbd9657d0	-0.07340968
204	0x3e7fa2d6	0.2496446
205	0xbd93980e	-0.072067365
206	0xbdcb71a9	-0.09933788
207	0xbd317f26	-0.04333415
208	0xbde72572	-0.11286439
209	0x3d2a445e	0.041569106
210	0xbce7fc8f	-0.028318672
211	0xbe8beae7	-0.27327654
212	0xbd17ad60	-0.037030578
213	0x3cffcf9a	0.031226922
214	0x3e225cb1	0.15855671
215	0x3e50edd3	0.20403223
216	0x3e16b908	0.14719021
217	0xbd750088	-0.05981496
218	0x3db57b45	0.088614024
219	0x3b5f7114	0.00340945
220	0xbe03b43c	-0.12861723
221	0xbbb11d62	-0.005405114
222	0x3e30305f	0.17205952
223	0x3e335df9	0.17516316
224	0xbe6c41b3	-0.23071937
225	0x3e23dc59	0.16002025
226	0x3dbce11d	0.092226245
227	0x3e76dff1	0.24108864
228	0x3d46861a	0.048467733
229	0x3d677032	0.056503482
230	0xbd1d96d7	-0.03847393
231	0xbce9e997	-0.028553767
232	0xbe17d0ef	-0.14825796
233	0xbccd64fd	-0.025072569
234	0x3df1d4ee	0.11808191
235	0x3e1b62e2	0.1517444
236	0xbdea3e72	-0.11437692
237	0x3d58c60d	0.05292325
238	0x3d42d1f8	0.047563523
239	0xbdd15756	-0.10221736
240	0x3e7d170b	0.24715821
241	0xbca95cbe	-0.020674106
242	0x3d637d96	0.05553969
243	0xbe20e99f	-0.1571412
244	0x3df8b06d	0.121430255
245	0x3c9c9f41	0.019118907
246	0x3dd306ff	0.10304069
247	0xbddd7e2b	-0.1081508
248	0xbe1652f4	-0.14680082
249	0x3df6e1df	0.120548
250	0x3db391bd	0.08768032
251	0x3b87f23a	0.0041487487
252	0xbda8238b	-0.08209904
253	0xbcfc02bb	-0.03076302
254	0x3d50fc50	0.051021874
255	0x3da698f6	0.08134644

fc2.bias f4 [84]
0	0xbd733bb8	-0.059383124
1	0x3e7c1129	0.24615921
2	0x3d028744	0.03186728
3	0x3e19bb04	0.15012747
4	0x3e6ad849	0.22934069
5	0xbd390623	-0.045171868
6	0x3e00558f	0.12532638
7	0x3ee79649	0.45231846
8	0xbcdde65c	-0.027087383
9	0x3e2f5bf9	0.17124929
10	0xbe2307ae	-0.15920898
11	0xbc9983e7	-0.018739654
12	0xbcc7dd89	-0.024397628
13	0xbea2ef82	-0.31823355
14	0xbea0527a	-0.31312925
15	0xbd4984af	-0.049198803
16	0x3e4a4a5e	0.19754931
17	0xbceffcb5	-0.029295305
18	0x3db18c48	0.08669335
19	0x3c9ed336	0.019387823
20	0x3c683306	0.014172321
21	0xbe399e9c	-0.18126911
22	0x3e1d2975	0.15347846
23	0x3e4d3176	0.20038399
24	0x3d0f9360	0.035052657
25	0xbd802101	-0.06256295
26	0x3d3f957c	0.04677342
27	0xbe7adb52	-0.24497727
28	0xbdde7b84	-0.108634025
29	0x3cd0c16e	0.02548286
30	0xbe145417	-0.14485203
31	0xbdcbb92e	-0.099474296
32	0xbdc4bfed	-0.096069194
33	0xbd9eaa7a	-0.077473596
34	0x3ebbe003	0.36694345
35	0xbe12bb3a	-0.14329234
36	0xbdff798d	-0.12474356
37	0xbe748d40	-0.23882008
38	0x3f13a39d	0.5767153
39	0x3f02aaae	0.51041687
40	0x3ce991fc	0.028511994
41	0x3daeb8b6	0.085313246
42	0x3e80d16b	0.25159773
43	0xbe8f91ed	-0.2804102
44	0xbe020da0	-0.1270051
45	0xbeb68beb	-0.35653624
46	0xbd8b1f0b	-0.0679303
47	0xbe5c2aad	-0.21500655
48	0xbe910861	-0.28326705
49	0xbda36478	-0.07978147
50	0x3e44944a	0.19197193
51	0x3e02b8e3	0.12765841
52	0x3dd35ab3	0.10320034
53	0x3d7ff112	0.062485762
54	0x3e937f76	0.28808182
55	0x3c6438f4	0.013929594
56	0x3e899718	0.26873088
57	0xbeaafe5e	-0.33397192
58	0x3e99c545	0.30033317
59	0x3f4b1f64	0.79344773
60	0xbd4e826d	-0.050417352
61	0x3e9c2769	0.30498818
62	0xbeaeda1e	-0.34150785
63	0xbdc8b3bc	-0.097999066
64	0xbe0d0d00	-0.1377449
65	0xbd37799d	-0.044793714
66	0xbeb9e0a3	-0.36304197
67	0x3d9fca93	0.0780231
68	0xbe6b3c28	-0.22972167
69	0x3f06144f	0.5237474
70	0xbd571ed1	-0.052519623
71	0x3d205f89	0.03915361
72	0xbbc05e6c	-0.005870631
73	0xbaab160f	-0.0013052839
74	0xbd65f5cc	-0.056142613
75	0x3cb835cb	0.022486588
76	0x3dff8c72	0.1247796
77	0x3d43004f	0.047607716
78	0x3dc2a0bb	0.09503313
79	0xbc80283e	-0.015644189
80	0x3d6f5541	0.058430914
81	0xbd96df9b	-0.07366868
82	0x3dac5922	0.08415438
83	0x3eb7e97d	0.35920325

fc3.weight f4 [10, 84]
0	0xbda2a0c6	-0.07940821
1	0x3eb36897	0.35040733
2	0xbe22e03d	-0.15905853
3	0x3ea1725a	0.31532556
4	0x3e833b39	0.2563112
5	0x3e68da0c	0.22739428
6	0xbd0b890d	-0.03406625
7	0x3e19e7d0	0.15029836
8	0x3d02feab	0.03198115
9	0xbd06f38f	-0.03294712
10	0xbe1ebf10	-0.15502572
11	0xbe80ef09	-0.2518237
12	0x3c991564	0.018686958
13	0x3ea503b4	0.32229388
14	0x3e347acc	0.17624968
15	0xbe0d46ba	-0.13796511
16	0xbda1a289	-0.07892329
17	0x3e55e397	0.208876
18	0xbe04f20c	-0.12982959
19	0xbebac351	-0.3647714
20	0xbe40fb43	-0.18845849
21	0xbd0d192d	-0.034447838
22	0xbcdeca19	-0.027195977
23	0xbe97357c	-0.29532993
24	0x3da032b4	0.07822171
25	0xbe0907d7	-0.13381897
26	0xbe7f1c97	-0.2491325
27	0xbe16d23d	-0.14728637
28	0x3e9e844d	0.30960312
29	0x3e93ce16	0.2886817
30	0x3e5a8951	0.21341445
31	0xbc853694	-0.016261376
32	0xbdc6fb93	-0.09715953
33	0x3ca7fa9c	0.020505242
34	0xbe3bcb0d	-0.18339176
35	0x3ea60556	0.32425946
36	0x3e70aa1e	0.23502395
37	0x3e0f57f0	0.13998389
38	0xbed2a494	-0.41141188
39	0xbe08cb84	-0.13358885
40	0x3f1d1ba9	0.6137033
41	0xbdd19a04	-0.10234454
42	0xbd854fbf	-0.06509351
43	0xbe29ff99	-0.16601409
44	0x3dddb177	0.10824864
45	0x3e94d440	0.29068184
46	0x3df7467c	0.12073991
47	0x3d1cf3b8	0.038318366
48	0x3e838b8d	0.25692406
49	0x3e5c8b55	0.21537526
50	0xbea50b0e	-0.32234997
51	0x3e2709f6	0.16312394
52	0x3e8df2e9	0.27724388
53	0x3d567628	0.052358776
54	0x3de395a6	0.111125275
55	0xbe9c465f	-0.3052244
56	0xbce0d185	-0.027443657
57	0x3e311f5f	0.17297123
58	0x3e494547	0.19655333
59	0xbef8c083	-0.48584375
60	0x3f00db8e	0.50335014
61	0xbe5a811d	-0.21338315
62	0x3e17d20f	0.14826225
63	0xbec489dd	-0.3838643
64	0x3ea22d15	0.3167502
65	0x3ec52951	0.38508084
66	0x3c4b37fc	0.012403484
67	0xbbd6c61d	-0.0065543787
68	0xbf1408ee	-0.57826126
69	0x3e76e08c	0.24109095
70	0xbe142f05	-0.14471062
71	0xbecf7f8c	-0.40526998
72	0xbeaf7194	-0.3426634
73	0xbdb1e859	-0.08686895
74	0x3d5f9434	0.054584697
75	0x3ec43d25	0.383279
76	0xbe9a6228	-0.30153012
77	0x3e0de19c	0.13855594
78	0xbeaab3c9	-0.3334029
79	0x3ecc7c88	0.3993876
80	0xbf0de50d	-0.5542763
81	0xbd69e7a9	-0.057105694
82	0xbdcb939c	-0.09940264
83	0x3e4cf47c	0.20015138
84	0xbe4ca0e4	-0.1998325
85	0xbd45a704	-0.04825498
86	0x3e18b358	0.14912164
87	0xbe1a4393	-0.1506484
88	0x3c5fa9e3	0.013651344
89	0xbc016c3f	-0.007899343
90	0x3a1bf4a1	0.00059492333
91	0xbbd44047	-0.006477389
92	0x3e6aa079	0.22912778
93	0xbc047341	-0.008084119
94	0x3df14440	0.11780596
95	0x3e962633	0.2932602
96	0x3ea0b55a	0.3138836
97	0x3e20ad52	0.15691116
98	0xbe8ca973	-0.2747303
99	0x3cb4e7ff	0.02208328
100	0xbf0e7b94	-0.55657315
101	0x3e94d957	0.29072067
102	0xbdb66096	-0.08905141
103	0xbe379a7e	-0.17930028
104	0xbeada128	-0.33912015
105	0x3ea44183	0.3208123
106	0x3ed9f69a	0.42570955
107	0x3e9cdf72	0.30639225
108	0xbe12cf21	-0.14336826
109	0x3ca6f587	0.020380748
110	0xbee261eb	-0.4421533
111	0x3e8468eb	0.25861296
112	0xbe1f277e	-0.15542409
113	0xbe93e524	-0.28885758
114	0x3e578c66	0.21049652
115	0xbe4c0443	-0.199235
116	0x3d28240d	0.041050006
117	0x3e75a62f	0.23989175
118	0xbe3c6056	-0.18396124
119	0xbca584cf	-0.02020493
120	0x3ed7316b	0.4202989
121	0x3de9456c	0.11390194
122	0xba3b6349	-0.00071482785
123	0xbe93b4d7	-0.28848907
124	0x3d3c315b	0.045945507
125	0xbf0a06b2	-0.53916466
126	0xbef23caf	-0.47311923
127	0x3e9b179b	0.30291447
128	0xbef332e2	-0.47499758
129	0xbd29254f	-0.041295346
130	0x3e9fb962	0.31196123
131	0x3e98e02e	0.29858536
132	0x3eea29b2	0.45734936
133	0x3e8de851	0.27716306
134	0xbe8e828a	-0.27833968
135	0x3eec52d6	0.4615695
136	0xbe72c38f	-0.23707412
137	0xbd7933fc	-0.06084059
138	0xbd17b522	-0.037037976
139	0xbc27440f	-0.0102090975
140	0xbeb8d7e6	-0.36102217
141	0x3ebd4b13	0.3697134
142	0xbf097f7e	-0.5371016
143	0xbecfc778	-0.4058187
144	0x3d6222f9	0.055209134
145	0xbe3d6e4a	-0.18499103
146	0x3d85436c	0.06507
147	0x3ec28173	0.37989387
148	0xbdcab23b	-0.09897276
149	0x3e240ecf	0.16021274
150	0x3e8ddc9d	0.27707377
151	0xbdabc8f3	-0.083879374
152	0x3eced32c	0.40395486
153	0xbf00635d	-0.50151616
154	0x3d407633	0.046987724
155	0xbe4e2c18	-0.20134008
156	0xbdbcfb1a	-0.09227581
157	0x3ea32667	0.31865236
158	0x3d304ca3	0.043041836
159	0xbe89db8c	-0.26925313
160	0xbd42211d	-0.04739486
161	0xbe5c4d6d	-0.2151391
162	0x3dfe65dd	0.12421773
163	0x3e7ae0a3	0.24499755
164	0x3e1567d5	0.1459039
165	0x3d1c2a84	0.038126484
166	0xbec9a121	-0.39380744
167	0xbea62919	-0.3245323
168	0x3edd797a	0.43256742
169	0xbe3be0a1	-0.18347408
170	0x3ec4f30c	0.3846668
171	0x3e9542e5	0.291526
172	0x3e4e2f86	0.20135316
173	0x3e22e30c	0.15906924
174	0x3e08b8b8	0.13351715
175	0x3e7f5785	0.2493573
176	0xbeaea515	-0.34110323
177	0x3e41cc72	0.18925646
178	0x3ea269c7	0.31721327
179	0xbe9a962b	-0.30192694
180	0xbea50e3f	-0.3223743
181	0xbe46e26d	-0.19422312
182	0xbd841a03	-0.06450274
183	0x3e8d0eab	0.27550253
184	0x3e9e173c	0.308771
185	0x3eebff63	0.46093282
186	0x3d04b409	0.032398257
187	0xbe65504c	-0.22393912
188	0xbcb2a94e	-0.021809246
189	0xbeae757f	-0.34074017
190	0x3edeae2c	0.43492258
191	0x3e9be2c7	0.30446455
192	0xbe43d898	-0.19125593
193	0xbe90c0ef	-0.28272197
194	0x3e318d8d	0.17339154
195	0xbd28ba02	-0.041193016
196	0x3e0d934a	0.13825718
197	0xbd6c0519	-0.05762205
198	0xbbcf58c6	-0.0063277213
199	0x3ee07aac	0.4384359
200	0x3f0bcb2c	0.5460689
201	0xbed54413	-0.416535
202	0x3f0740ea	0.52833426
203	0xbd5048b7	-0.050850596
204	0x3daf128c	0.085484594
205	0xbededfa1	-0.4352999
206	0x3ebc918e	0.368298
207	0xbe99173c	-0.2990054
208	0xbe8914ad	-0.26773587
209	0x3e87fe6f	0.26561305
210	0x3f056d04	0.5211947
211	0xbd8c286e	-0.06843649
212	0xbe9f37ce	-0.31097263
213	0x3e71f05e	0.23626849
214	0xbea4cd13	-0.3218771
215	0xbe4698b2	-0.19394186
216	0xbe91a7b1	-0.2844825
217	0xbd449b74	-0.047999814
218	0xbe543156	-0.20721945
219	0xbee555b1	-0.4479194
220	0x3e6a5d49	0.22887148
221	0xbd1d11c2	-0.038347013
222	0x3ee06e12	0.43833977
223	0x3eb2f215	0.3495032
224	0xbe27730c	-0.1635248
225	0xbe9867ed	-0.2976679
226	0x3dbce200	0.092227936
227	0x3eafb255	0.34315744
228	0xbe1b373a	-0.15157786
229	0xbe95267b	-0.2913092
230	0xbe7fa802	-0.24966434
231	0xbe582da2	-0.21111158
232	0x3f120339	0.5703617
233	0xbe625d4d	-0.22105904
234	0x3d8a464e	0.06751691
235	0x3e7e0413	0.24806242
236	0xbdbcf41c	-0.09226248
237	0x3e7854b4	0.24251062
238	0x3dc02e5f	0.093838446
239	0xbcb497d7	-0.02204506
240	0x3dcb8ebb	0.09939333
241	0x3e53d3c0	0.20686245
242	0x3e01b648	0.12667191
243	0xbd0b16d7	-0.03395733
244	0xbef9451f	-0.48685548
245	0x3dc4e137	0.09613269
246	0x3dc74208	0.09729391
247	0x3e33d04b	0.17559926
248	0xbe515a8c	-0.20444697
249	0xbde420a1	-0.11139036
250	0x3e245f35	0.16051944
251	0x3ddf5ea4	0.10906723
252	0x3e161540	0.14656544
253	0x3da4155f	0.08011889
254	0xbeb9080c	-0.36138952
255	0xbe8b5c58	-0.2721889

fc3.bias f4 [10]
0	0xbed201bb	-0.41016945
1	0xbf3fe3e9	-0.7495714
2	0x3e854146	0.26026362
3	0x3ebd2d53	0.36948642
4	0x3f83838e	1.0274522
5	0xbe9db90a	-0.30805236
6	0x3ee3ea81	0.4451485
7	0xbe52562c	-0.20540684
8	0x3eb834b6	0.35977715
9	0xbeab9f66	-0.3352005
